training/trained_models.npz (npz, 37790 bytes, 27 tensors)

corr_bb_l1.weight f4 [32, 3]
0.529352 -0.19691013 0.87125903 0.8487674 -0.5734503 1.8576 0.052125245 0.48788175
-1.673141 0.46237478 0.84565955 -1.2834338 -0.41086623 0.005584277 -1.3189837 -0.2406319
0.14446303 2.3673496 -0.67609054 0.5192996 0.78770196 -0.44613183 -1.5912741 -0.04092126
0.63346595 0.019762235 -0.98844326 -0.8502666 0.80993366 1.3981725 -0.21453339 -0.08678221
-2.3242335 -0.8940747 -0.8714999 -1.5072621 -0.016886009 0.8352102 0.7649655 0.4401774
0.0837793 -0.5725254 0.27453664 -0.826437 -0.5022007 -0.77573884 0.3121534 0.22719753
0.29866126 -1.9436792 1.7785217 2.6000526 -0.09120064 -0.69110775 0.4892524 -0.6905821
-2.5867543 -0.24782972 0.10305435 -1.89959 -0.4744549 -0.6882406 -1.2881765 -0.18844382
-0.7555783 1.0455353 -0.017435597 0.42245045 0.7242101 0.7198374 -0.5150676 1.8529595
-0.4214171 -0.40995595 -2.6902099 0.12954523 0.15290734 1.9495023 0.61695045 0.21705651
-1.745063 -0.08673641 0.80357677 -0.17518279 0.61708546 -0.26426888 -0.76332843 -0.24512102
-0.21898071 -2.0121315 0.10624392 -0.3259621 -0.2000659 -0.09797354 -0.48741823 2.6270132
00000000: 9d83 073f cfa2 49be d50a 5f3f d248 593f
00000010: a4cd 12bf d6c5 ed3f 4881 553d a3cb f93e
00000020: 7c29 d6bf 63bc ec3e 257d 583f 8f47 a4bf
00000030: 0f5d d2be 50fc b63b 75d4 a8bf 3568 76be
00000040: 1eee 133e a882 1740 4514 2dbf d2f0 043f
00000050: d6a6 493f 646b e4be dfae cbbf 0d9d 27bd
00000060: d32a 223f 69e4 a13c 9e0a 7dbf 12ab 59bf
00000070: d057 4f3f 51f7 b23f a4ae 5bbe dfba b1bd
00000080: 3ec0 14c0 14e2 64bf 9e1a 5fbf f7ed c0bf
00000090: 8754 8abc 56d0 553f c7d4 433f ef5e e13e
000000a0: 7b94 ab3d 0691 12bf 1190 8c3e 6091 53bf
000000b0: 3a90 00bf d296 46bf 92d2 9f3e 78a6 683e
000000c0: 21ea 983e 7bca f8bf 99a6 e33f 4367 2640
000000d0: 67c7 babd 70ec 30bf 4a7f fa3e fdc9 30bf
000000e0: 628d 25c0 13c7 7dbe 290e d33d c425 f3bf
000000f0: c1eb f2be 8930 30bf f8e2 a4bf 6bf7 40be
00000100: 946d 41bf 1ad4 853f 19d5 8ebc 6d4b d83e
00000110: d565 393f 4447 383f 78db 03bf c72d ed3f
00000120: fbc3 d7be bfe5 d1be 662c 2cc0 81a7 043e
00000130: be93 1c3e 4b89 f93f 77f0 1d3f 1044 5e3e
00000140: 395e dfbf dca2 b1bd 35b7 4d3f 1e63 33be
00000150: 50f9 1d3f 404e 87be 7e69 43bf 0101 7bbe
00000160: 7b3c 60be c3c6 00c0 6a96 d93d 81e4 a6be
00000170: 13de 4cbe 5aa6 c8bd e28e f9be fc20 2840

corr_bb_l1.bias f4 [32]
-0.79137266 0.05990011 0.64388925 0.029461775 0.891019 0.22880888 0.53292537 0.35024038
-0.35594147 0.23425505 0.6970934 1.0346518 0.0968558 0.30101532 -0.31821498 0.716306
-0.08806822 0.11423266 0.1715015 -0.17728409 0.69454175 -0.19795433 -0.72274613 0.35120264
0.10353921 0.1735542 -0.45737758 -0.7668897 0.6017362 -0.4381813 -0.118084446 0.31345156
00000000: 6697 4abf d159 753d edd5 243f d259 f13c
00000010: d219 643f e04c 6a3e cc6d 083f b552 b33e
00000020: f63d b6be 8ee0 6f3e b774 323f 786f 843f
00000030: 555c c63d ae1e 9a3e 13ed a2be d45f 373f
00000040: 1c5d b4bd d0f2 e93d 179e 2f3e f689 35be
00000050: 7dcd 313f 8ab4 4abe e405 39bf d5d0 b33e
00000060: 5e0c d43d 31b8 313e 652d eabe e252 44bf
00000070: 620b 1a3f 4d59 e0be 42d6 f1bd b97c a03e

corr_bb_l2.weight f4 [32, 3]
0.5154985 -0.5827604 -1.2000628 -0.24907985 0.38936934 -4.4711556 -0.37279963 -0.4381585
1.0895767 -0.6588296 -0.021337612 0.8040671 0.02930579 0.4867417 0.04486269 -1.0835019
-0.012487228 -2.1645603 -1.2767404 -0.5520052 -1.0482676 -1.3243501 0.5253 3.505464
-1.6610718 -0.66641825 1.9578013 -0.650104 -0.48034456 -3.4483645 0.44201592 -0.44039732
0.7498183 -0.2793741 -1.2437105 5.181247 -0.91565144 0.13942711 -0.50812465 0.42522287
-0.2764905 -0.088521354 -0.55756074 -0.2749217 -1.43014 -1.1090951 -0.5556542 -0.4967856
-2.1201239 0.50085056 -2.6293967 0.34423327 -2.8842452 -2.8316517 0.26723546 -1.1849186
-4.543266 0.19863492 1.0214831 0.23335277 -1.7571234 -0.08102541 -3.047317 -0.7101488
-0.6374746 0.7940006 0.21338844 0.34579298 0.4594627 -0.7589825 -0.13583279 -1.935247
-0.14767094 -0.2923735 -0.07136581 0.4302525 -0.24604407 1.1500305 -1.3101649 -0.17651352
2.6316812 -0.31620237 -4.581372 -1.3875266 0.73168427 0.5062858 -0.94574827 -0.6541351
0.64413035 -1.8616325 0.18201998 -0.04600366 -1.218598 -1.3706923 -1.6390549 0.9467173
00000000: b6f7 033f c92f 15bf a89b 99bf ca0e 7fbe
00000010: 6b5b c73e b513 8fc0 98df bebe 5056 e0be
00000020: 4077 8b3f 0fa9 28bf 37cc aebc 57d7 4d3f
00000030: b212 f03c 3536 f93e f1c1 373d 31b0 8abf
00000040: 3b97 4cbc 2888 0ac0 3b6c a3bf 3650 0dbf
00000050: a22d 86bf 4e84 a9bf 107a 063f 8659 6040
00000060: 009e d4bf 639a 2abf 3c99 fa3f 376d 26bf
00000070: b9ef f5be 01b2 5cc0 e94f e23e c27b e1be
00000080: 18f4 3f3f 1f0a 8fbe e831 9fbf c7cc a540
00000090: 2268 6abf fbc5 0e3e 7514 02bf d0b6 d93e
000000a0: 2a90 8dbe af4a b5bd 4dbc 0ebf 89c2 8cbe
000000b0: d40e b7bf d4f6 8dbf 5b3f 0ebf af5a febe
000000c0: 1cb0 07c0 be37 003f 0948 28c0 583f b03e
000000d0: 7997 38c0 c839 35c0 16d3 883e 6aab 97bf
000000e0: 6f62 91c0 f466 4b3e f5bf 823f 07f4 6e3e
000000f0: 6be9 e0bf a6f0 a5bd 3e07 43c0 50cc 35bf
00000100: 8931 23bf a043 4b3f 8082 5a3e c70b b13e
00000110: b23e eb3e ad4c 42bf c017 0bbe 2cb6 f7bf
00000120: 0d37 17be fbb1 95be 3d28 92bd 0e4a dc3e
00000130: faf2 7bbe 3334 933f 7cb3 a7bf f6bf 34be
00000140: 776d 2840 47e5 a1be 999a 92c0 799a b1bf
00000150: a94f 3b3f f29b 013f 8f1c 72bf 6675 27bf
00000160: bae5 243f f949 eebf 7263 3a3e 556e 3cbd
00000170: 05fb 9bbf d872 afbf 8dcc d1bf 115c 723f

corr_bb_l2.bias f4 [32]
-1.0912617 -0.80580354 -0.74264395 -0.4831963 -0.39307633 -0.37731934 -1.0666696 -0.42618254
-0.2143846 -0.87985706 -1.338017 -0.958982 0.0732725 -0.24416886 -0.9148327 -1.5821805
-1.5345898 -2.1266794 -0.47296032 -0.62021065 -1.0874456 0.2796467 -1.1311685 -0.51097125
-1.5208378 0.5139445 -0.7105752 -0.8004188 -0.1267776 -0.036231767 0.3183666 -0.9310248
00000000: 77ae 8bbf 2449 4ebf ea1d 3ebf 8165 f7be
00000010: 4d41 c9be 0030 c1be a188 88bf 9934 dabe
00000020: a387 5bbe 503e 61bf 2444 abbf d87f 75bf
00000030: e40f 963d 6707 7abe 7a32 6abf e484 cabf
00000040: 706d c4bf 841b 08c0 db27 f2be 20c6 1ebf
00000050: 6b31 8bbf da2d 8f3e 21ca 90bf 03cf 02bf
00000060: d0aa c2bf de91 033f 42e8 35bf 3fe8 4cbf
00000070: fdd1 01be c367 14bd f200 a33e a457 6ebf

corr_bb_l3.weight f4 [32, 32]
-0.013706274 -0.047407683 0.052705366 -0.0116034765 0.07202306 0.071164265 0.017255832 0.14108156
-0.030757109 -0.13515247 -0.014124534 0.017411776 0.089501075 -0.22796363 0.04634561 0.012286445
-0.039537255 0.004532245 -0.044880033 -0.07170585 0.07264825 -0.06972546 0.16787419 0.028245306
-0.10801768 -0.16476041 -0.018079381 -0.048882477 -0.04470338 0.07310848 0.057638623 -0.058396075
-0.12873642 -0.42089227 0.21244535 0.1341031 0.13861881 -0.21825898 -0.1657874 -0.250629
0.110986166 -0.30741325 0.324358 -0.10021369 -0.120987 0.050580744 0.013421989 -0.14112216
0.044214763 0.027086195 0.52771664 0.3824126 0.28714192 0.010628569 -0.37294704 -0.26759058
0.47839707 0.011460718 0.1366732 0.036369562 0.15017302 0.20076251 0.1670435 -0.6637234
0.059305456 -0.33366415 0.23992892 -0.012651339 0.10348859 -0.2850687 -0.16072614 0.003511699
-0.09927335 -0.29729584 0.31044924 0.32926428 -0.16113131 -0.093963966 0.06636061 0.023128176
-0.20668152 0.057996657 0.4772954 0.45551148 0.07612615 -0.08420098 -0.17367116 -0.28459635
0.55924195 -0.2988936 -0.076837346 0.2513847 0.21826075 0.22038192 -0.09895806 -0.55661947
0.14197844 -0.045498386 0.14669827 -0.03809924 0.0121478755 0.0076018563 -0.027594877 -0.02248939
-0.07337593 0.12148258 0.02662281 -0.10422604 0.059294004 0.1428667 -0.037301 -0.092445694
0.09335226 -0.008656203 -0.023009121 -0.066909924 -0.117381625 -0.12484271 -0.2030647 -0.12750685
0.07373827 -0.030001568 -0.04759894 -0.06638272 0.092786424 -0.01675932 0.024445456 0.0049073095
-0.18695973 -0.041616626 -0.03996239 -0.08439469 -0.03215698 -0.07574996 -0.057159312 0.08192048
-0.05813325 0.10727069 -0.050572343 0.072161466 0.11409037 -0.0017298245 -0.14109224 -0.156868
0.030854965 0.03486419 0.0557409 0.019298539 0.011746703 0.11304785 -0.0058302 -0.06292943
-0.13743748 0.12755693 0.046057295 -0.018658299 0.0018759714 0.05643231 0.1191681 -0.103225924
-0.22337748 -0.29715997 -0.036731955 0.028844994 0.052180197 -0.06859786 -0.008376016 0.15625459
0.15485021 -0.018128743 -0.025349323 -0.28180477 0.07202275 0.10072621 -0.13027783 -0.005823825
0.09537135 -0.07155435 0.2024739 -0.25726044 -0.23999216 -0.17207018 -0.007412581 0.15322357
0.031676132 0.18700077 0.09315151 -0.10869512 -0.16668245 -0.006236454 0.020123776 0.39009687
0.049275275 -0.110838205 0.12132664 0.008069057 -0.014577878 -0.027111653 0.1267174 -0.060795046
0.020337887 0.18837433 0.11203562 -0.07995644 -0.099395946 0.06086187 0.10804586 -0.08847194
0.08766022 0.036629796 0.007824183 0.18523267 0.002188197 0.13550696 0.06090661 0.0064693186
0.06499732 0.013488674 -0.0013675421 -0.020369662 0.02063059 0.038490266 -0.030455682 0.09048689
-0.04616312 -0.16632216 0.24838766 0.28242314 0.25658718 -0.51102114 -0.3182795 0.040386733
0.33482245 -0.11657175 0.23415837 -0.255251 -0.089283384 -0.029817358 0.1179343 0.054188266
-0.25624377 -0.10133951 0.21362706 -0.02423536 0.2901082 -0.012288205 -0.19833165 -0.14073358
0.34558293 0.13764797 0.28292355 0.14353079 0.100889534 0.18280548 -0.16032963 -0.3477995
00000000: 4890 60bc 8f2e 42bd 95e1 573d 821c 3ebc
00000010: d380 933d 92be 913d 1a5c 8d3c af77 103e
00000020: 55f6 fbbc 6965 0abe 976a 67bc 24a3 8e3c
00000030: 574c b73d 4c6f 69be e5d4 3d3d 164d 493c
00000040: d1f1 21bd 3a83 943b 20d4 37bd 84da 92bd
00000050: 9bc8 943d 39cc 8ebd 36e7 2b3e b362 e73c
00000060: 6038 ddbd f4b6 28be 361b 94bc fe38 48bd
00000070: e41a 37bd e6b9 953d 7a16 6c3d b930 6fbd
00000080: 7bd3 03be 317f d7be 468b 593e 5352 093e
00000090: 17f2 0d3e 487f 5fbe 2cc4 29be 7252 80be
000000a0: b74c e33d 4565 9dbe 4012 a63e d63c cdbd
000000b0: 08c8 f7bd c12d 4f3d e7e7 5b3c 5482 10be
000000c0: 8a1a 353d dee3 dd3c 7018 073f 96cb c33e
000000d0: 4404 933e 7323 2e3c eaf2 bebe a201 89be
000000e0: 76f0 f43e bcc5 3b3c 0ff4 0b3e 40f8 143d
000000f0: f5c6 193e b094 4d3e 740d 2b3e c7e9 29bf
00000100: 47ea 723d 07d6 aabe edaf 753e 9047 4fbc
00000110: d3f1 d33d 86f4 91be 6595 24be 8824 663b
00000120: d34f cbbd 2937 98be 34f3 9e3e 5495 a83e
00000130: 9bff 24be 2e70 c0bd 12e8 873d 4d77 bd3c
00000140: 52a4 53be e78d 6d3d 1060 f43e cd38 e93e
00000150: 07e8 9b3d 9071 acbd dad6 31be 9db6 91be
00000160: 7b2a 0f3f 9508 99be e65c 9dbd 7fb5 803e
00000170: bf7f 5f3e ccab 613e 86aa cabd 9d7e 0ebf
00000180: cc62 113e 845c 3abd 1238 163e f30d 1cbd
00000190: e207 473c fe18 f93b a70e e2bc ab3b b8bc
000001a0: 1f46 96bd dccb f83d 1418 da3c 7674 d5bd
000001b0: 45de 723d a64b 123e efc8 18bd 2b54 bdbd
000001c0: 782f bf3d bfd2 0dbc a07d bcbc 1208 89bd
000001d0: c765 f0bd 89ad ffbd 31f0 4fbe 2891 02be
000001e0: 1704 973d d9c5 f5bc 1bf7 42bd aaf3 87bd
000001f0: cf06 be3d d74a 89bc d641 c83c 7fcd a03b
00000200: 5f72 3fbe 3276 2abd 9aaf 23bd 20d7 acbd
00000210: 0ab7 03bd cc22 9bbd e21f 6abd edc5 a73d
00000220: 211d 6ebd bcb0 db3d f224 4fbd 64c9 933d
00000230: 36a8 e93d 47bb e2ba 7c7a 10be 01a2 20be
00000240: 8dc3 fc3c c1cd 0e3d 9250 643d f817 9e3c
00000250: 3e75 403c a285 e73d 430b bfbb 25e1 80bd
00000260: 69bc 0cbe 499e 023e 93a6 3c3d 4ad9 98bc
00000270: 28e3 f53a 9125 673d 680e f43d 1d68 d3bd
00000280: 11bd 64be 5a25 98be 3f74 16bd 564c ec3c
00000290: e7ba 553d 097d 8cbd 8f3b 09bc 3401 203e
000002a0: 0e91 1e3e bb82 94bc 62a9 cfbc b748 90be
000002b0: aa80 933d 8b49 ce3d 8d67 05be c9d5 bebb
000002c0: 0e52 c33d 168b 92bd 5155 4f3e a4b7 83be
000002d0: 81c0 75be 2a33 30be 3ce5 f2bb a4e6 1c3e
000002e0: d5be 013d 217d 3f3e 38c6 be3d 8c9b debd
000002f0: ceae 2abe 2b5b ccbb 9eda a43c c7ba c73e
00000300: dfd4 493d 24ff e2bd 1a7a f83d 1434 043c
00000310: 0dd8 6ebc 4219 debc 35c2 013e 3a04 79bd
00000320: a49b a63c 33e5 403e ee72 e53d 34c0 a3bd
00000330: 1a90 cbbd 4c4a 793d 2647 dd3d c730 b5bd
00000340: 3487 b33d 2009 163d 0131 003c a2ad 3d3e
00000350: db67 0f3b 56c2 0a3e 3679 793d 94fc d33b
00000360: 511d 853d 99ff 5c3c 193f b3ba 47de a6bc
00000370: 7c01 a93c f8a7 1d3d 327e f9bc 3151 b93d
00000380: 8a15 3dbd 5b50 2abe 5659 7e3e c499 903e
00000390: 655f 833e 48d2 02bf 88f5 a2be 8f6c 253d
000003a0: d96d ab3e 2bbd eebd 36c7 6f3e 42b0 82be
000003b0: 35da b6bd 8843 f4bc 8a87 f13d 84f4 5d3d
000003c0: 6232 83be 178b cfbd 0dc1 5a3e 3c89 c6bc
000003d0: 1089 943e 7854 49bc 7417 4bbe 771c 10be
000003e0: 3ff0 b03e 97f3 0c3e 5bdb 903e bcf9 123e
000003f0: 2c9f ce3d 5c31 3b3e 732d 24be c712 b2be

corr_bb_l3.bias f4 [32]
0.018428603 0.050726112 0.010854436 -0.005283846 0.0946197 0.11023369 0.06701151 0.03078527
0.00551437 -0.08913671 -0.11205941 0.19860737 0.1163469 -0.21993361 0.113652565 0.06866528
0.10109141 0.108011164 -0.31797704 0.0043630754 0.117320985 0.078274935 0.08868101 -0.058510166
-0.15288058 0.089856714 0.14293118 0.12437429 -0.061136916 0.20535576 0.046804216 0.04494608
00000000: 95f7 963c 2fc6 4f3d ced6 313c 1d24 adbb
00000010: f9c7 c13d 33c2 e13d 553d 893d 6431 fc3c
00000020: e3b1 b43b 4f8d b6bd 677f e5bd bb5f 4b3e
00000030: 4947 ee3d 4736 61be adc2 e83d 62a0 8c3d
00000040: 0309 cf3d f534 dd3d e3cd a2be 21f8 8e3b
00000050: fc45 f03d 9c4e a03d 649e b53d 5ba8 6fbd
00000060: ba8c 1cbe cc06 b83d 8d5c 123e f3b7 fe3d
00000070: b46a 7abd c848 523e c7b5 3f3d 6119 383d

corr_bb_l4.weight f4 [32, 32]
-1.5490956 1.2033211 2.5325062 2.1888692 1.4750866 1.5368267 1.9351358 -1.5419742
-0.08008153 1.2957239 1.9307696 1.4218798 1.3484042 1.5147839 -2.1364424 1.8533514
-2.227298 4.232202 -0.3108021 -1.3652186 0.7325922 -1.6903763 -2.1394696 2.0470834
-1.8924881 0.9774146 0.08173414 -2.1261125 1.6811552 -1.9541389 -0.8437236 -0.19871141
-0.5856895 0.62626976 0.15882164 -0.04783361 0.8642478 0.07236265 0.0406492 0.21078138
-0.2624237 -0.8087855 0.86973447 1.2758343 -0.023007652 0.3622925 0.053599022 0.20109262
0.29351172 0.29606602 1.7861599 -0.5171238 1.10994 0.21283273 -1.8841953 0.8035286
0.12934873 -0.031295724 -0.55406123 -6.596385 0.88711417 -0.5869593 0.07892064 1.6973436
0.6887199 1.6464318 0.21753182 0.42813233 -0.4233516 0.34602225 -0.079530686 -0.29632068
0.6437508 0.10237232 -0.0045520267 0.7856327 0.45434883 0.32570297 0.06663532 -0.29349524
0.07033749 1.9832435 -0.55716896 -0.048902832 -0.70815843 -0.21453139 -0.12317785 0.6088406
-0.6976726 -0.1919348 0.84735733 -0.28106654 0.061793774 -0.48080733 0.10509077 -0.07273047
-2.1924214 1.1125152 2.8663628 2.06172 1.9119774 1.1459037 2.2996101 -2.0479152
0.23386838 0.9518555 2.6218796 1.011082 1.6721723 1.7979237 -2.6725352 2.692015
-2.2680814 3.9242244 -0.193098 -1.222416 0.77820015 -2.0273786 -1.8502674 1.6386696
-1.8037565 0.8114073 0.19004056 -2.184633 1.4559971 -1.7112268 -0.9012036 0.1289918
-2.3218243 1.105173 2.8647778 2.122232 1.8597893 1.1516229 2.4924893 -1.7469308
0.107073285 0.8333442 2.5957768 0.87450755 1.4742174 1.674312 -2.4791267 2.5702882
-2.2729945 3.6718385 -0.17395204 -1.2270588 0.9859057 -1.8861599 -2.0122404 1.7200006
-1.8545396 1.0163015 0.30634168 -2.1270587 1.5729396 -1.7926799 -0.96916467 0.100695305
-0.23608562 0.07923522 0.17129454 0.12461444 0.74021745 -0.56349915 -0.8175322 -0.18619898
0.79212296 -1.1695342 1.3691572 0.66096956 -0.33633786 0.05462268 0.60929716 -0.12365846
-0.04852565 0.044122454 3.779113 -0.37235954 1.0073212 0.15107398 -1.225803 -0.2997925
1.0456225 -0.38397104 1.0969069 -2.542344 0.336198 0.054563627 0.28022242 -0.5393275
-2.0213366 1.2238654 2.8318288 2.2112386 1.9709412 1.4810997 2.274492 -1.8921758
-0.11341399 1.166984 2.6528037 1.2472379 1.481824 1.7403789 -2.4383893 2.4205132
-2.3612235 4.323336 -0.2096064 -1.3025048 1.0161041 -1.7709545 -2.2292693 2.234041
-1.796111 0.78824365 -0.060753506 -2.5682576 1.6028523 -1.7521927 -1.088174 0.017271644
-0.68865454 0.22767219 0.37663886 -0.0135718435 0.40172458 0.45738998 0.8339291 0.21171468
-0.37370145 0.739138 0.5339468 1.330102 0.2579723 0.00817204 -0.376695 0.76407224
-0.07456656 -0.28315553 -0.20347618 0.112176836 0.023591956 -0.21925916 -0.25938672 0.1424483
-0.22049788 0.09994476 0.06701692 -0.03352596 -0.030783275 0.002376474 -0.12186353 -0.3766838
00000000: c448 c6bf 6d06 9a3f 9514 2240 6f16 0c40
00000010: a3cf bc3f bdb6 c43f 88b2 f73f 695f c5bf
00000020: c901 a4bd 48da a53f 7523 f73f 2800 b63f
00000030: 8298 ac3f 70e4 c13f 79bb 08c0 9e3a ed3f
00000040: 0d8c 0ec0 336e 8740 7421 9fbe 7cbf aebf
00000050: 2a8b 3b3f 405e d8bf 12ed 08c0 6a03 0340
00000060: 0d3d f2bf d837 7a3f 3b64 a73d 3a12 08c0
00000070: 1830 d73f 3921 fabf 45fe 57bf 017b 4bbe
00000080: bfef 15bf 3753 203f 24a2 223e 2ded 43bd
00000090: 583f 5d3f de32 943d c77f 263d 13d7 573e
000000a0: 665c 86be 910c 4fbf eba6 5e3f 8a4e a33f
000000b0: 8b7a bcbc 677e b93e a68a 5b3d 39eb 4d3e
000000c0: 2b47 963e f795 973e e3a0 e43f 3a62 04bf
000000d0: 8412 8e3f d3f0 593e 502d f1bf 0db4 4d3f
000000e0: fe73 043e f22f 00bd f5d6 0dbf 9615 d3c0
000000f0: ea19 633f f742 16bf 25a1 a13d 8e42 d93f
00000100: f34f 303f 47be d23f a9c0 5e3e 2934 db3e
00000110: 8ac1 d8be d429 b13e fce0 a2bd 58b7 97be
00000120: dacc 243f 94a8 d13d 2b29 95bb 3a1f 493f
00000130: 69a0 e83e 8ac2 a63e 1978 883d 0245 96be
00000140: 1a0d 903d ecda fd3f a0a2 0ebf 564e 48bd
00000150: df49 35bf 1eae 5bbe ab44 fcbd fadc 1b3f
00000160: ac9a 32bf 8e8a 44be 69ec 583f f4e7 8fbe
00000170: 781b 7d3d 612c f6be d439 d73d b6f3 94bd
00000180: a250 0cc0 e666 8e3f 7d72 3740 38f3 0340
00000190: adbb f43f f9ac 923f d02c 1340 0b11 03c0
000001a0: 317b 6f3e cdac 733f e0cc 2740 236b 813f
000001b0: be09 d63f 5d22 e63f d10a 2bc0 f949 2c40
000001c0: 3f28 11c0 7e26 7b40 7bbb 45be 2178 9cbf
000001d0: 2038 473f 92c0 01c0 90d5 ecbf edbf d13f
000001e0: 7ee1 e6bf 64b8 4f3f fe99 423e 07d1 0bc0
000001f0: 1d5e ba3f 7b09 dbbf 47b5 66bf 6d16 043e
00000200: c598 14c0 4f76 8d3f 8558 3740 a6d2 0740
00000210: 930d ee3f 6168 933f f284 1f40 6e9b dfbf
00000220: 3d49 db3d 0c56 553f 3521 2640 badf 5f3f
00000230: 28b3 bc3f db4f d63f 03aa 1ec0 9a7f 2440
00000240: be78 11c0 67ff 6a40 7c20 32be 4310 9dbf
00000250: 5164 7c3f b06d f1bf 8cc8 00c0 fb28 dc3f
00000260: 8e61 edbf 2b16 823f d1d8 9c3e bb21 08c0
00000270: 1656 c93f 8976 e5bf 2d1b 78bf 5739 ce3d
00000280: 6ec0 71be 1346 a23d d667 2f3e db35 ff3d
00000290: e47e 3d3f 7b41 10bf ca49 51bf f2aa 3ebe
000002a0: 92c8 4a3f 4cb3 95bf 8b40 af3f 4d35 293f
000002b0: 7a34 acbe 08bc 5f3d e6fa 1b3f a640 fdbd
000002c0: d5c2 46bd bfb9 343d fddc 7140 e9a5 bebe
000002d0: e7ef 803f 23b3 1a3e 1de7 9cbf 677e 99be
000002e0: f5d6 853f da97 c4be 7267 8c3f c4b5 22c0
000002f0: 2522 ac3e 1c7e 5f3d 5079 8f3e 5e11 0abf
00000300: 945d 01c0 9fa7 9c3f af3c 3540 ef84 0d40
00000310: cd47 fc3f ad94 bd3f 4791 1140 d132 f2bf
00000320: 9845 e8bd bb5f 953f 89c7 2940 7ea5 9f3f
00000330: 69ac bd3f bcc4 de3f 920e 1cc0 b0e9 1a40
00000340: 491e 17c0 c558 8a40 0fa3 56be 7ab8 a6bf
00000350: b30f 823f a3ae e2bf 59ac 0ec0 87fa 0e40
00000360: f7e6 e5bf 56ca 493f abd8 78bd 555e 24c0
00000370: 442a cd3f da47 e0bf 4949 8bbf 437d 8d3c
00000380: aa4b 30bf e622 693e cfd6 c03e 705c 5ebc
00000390: d8ae cd3e 052f ea3e 617c 553f bccb 583e
000003a0: cc55 bfbe 2638 3d3f bdb0 083f c840 aa3f
000003b0: f214 843e 05e4 053c 2bde c0be 3d9a 433f
000003c0: 5ab6 98bd c3f9 90be 0f5c 50be f8bc e53d
000003d0: eb43 c13c 7985 60be 56ce 84be f8dd 113e
000003e0: 32ca 61be d7af cc3d 2b40 893d 8452 09bd
000003f0: 352d fcbc 9ebe 1b3b 9693 f9bd b3dc c0be

corr_bb_l4.bias f4 [32]
1.7253078 0.6862844 -0.2723964 1.6380572 1.7706429 0.2587166 1.7566609 0.10390084
0.4868911 1.7934897 0.7472659 -0.25841162 1.6621585 0.2372018 0.4206952 1.7041808
1.7185643 1.7284851 0.18917336 1.8520384 1.8400677 0.22373627 1.811847 -0.10392073
1.9487405 1.9479468 0.68864214 0.3252412 1.6989626 0.60026526 1.8074507 1.5007788
00000000: e3d6 dc3f 56b0 2f3f 8a77 8bbe dcab d13f
00000010: 6da4 e23f 8176 843e 44da e03f f7c9 d43d
00000020: ca49 f93e 1291 e53f d14c 3f3f 874e 84be
00000030: 9cc1 d43f 07e5 723e 5c65 d73e 9922 da3f
00000040: eaf9 db3f 003f dd3f a9b6 413e 980f ed3f
00000050: 5787 eb3f 1f1b 653e 9aea e73f 64d4 d4bd
00000060: 5470 f93f 5256 f93f da4a 303f 0486 a63e
00000070: 9b77 d93f fcaa 193f 8b5a e73f 8519 c03f

corr_bb_out.weight f4 [1, 32]
-4.3046475e-05 -0.13777284 0.12972705 -0.00011065369 -0.00057273987 -0.00580993 -0.00021047745 0.051538825
-0.22088805 0.00028642445 0.20440969 -0.014330797 -0.0002015616 -0.02930975 -0.21870834 -5.4261443e-05
-0.000515389 0.0004541607 -0.031916883 0.00072514126 -0.0010479114 0.3922164 0.00040045794 0.16580749
-8.2964434e-05 0.00025059996 -0.07217951 0.28216 -0.00048218473 0.13215981 -0.00045673185 -0.0005806277
00000000: cd8c 34b8 5314 0dbe 2bd7 043e bf0e e8b8
00000010: ec23 16ba 3a61 bebb 9cb3 5cb9 601a 533d
00000020: 7a30 62be 3d2b 9639 c650 513e b8cb 6abc
00000030: 485a 53b9 001b f0bc 14f5 5fbe c896 63b8
00000040: 2c1b 07ba 6b1c ee39 47bb 02bd 6817 3e3a
00000050: 125a 89ba 97d0 c83e 8ef4 d139 70c9 293e
00000060: 31fd adb8 f562 8339 dad2 93bd 4777 903e
00000070: bdcd fcb9 e754 073e 8375 efb9 4435 18ba

corr_gg_l1.weight f4 [32, 6]
-1.638445 -0.58409905 -2.487551 0.27892396 0.98916966 -0.9204066 -0.74149007 -1.7786844
4.349057 0.4293105 0.2690157 0.42651162 -0.19361287 -0.2710007 0.09201169 1.9263414
0.053741913 -2.898067 -0.26388934 7.534733 -0.68723506 0.8974103 0.30455142 -0.047960974
0.82550555 0.49796718 2.5811825 -0.625175 0.8326268 -0.02773396 0.20431429 0.2826638
1.249515 -5.632879 -3.1252139 0.34289196 -0.024369627 0.024778526 1.4957486 -7.3014245
5.8682857 0.21195786 0.43166056 0.20299037 2.8158686 2.2832458 2.8427894 0.024873504
-0.03508013 -0.0097085005 7.724386 -0.070993625 0.71738917 -0.3219948 0.14408839 0.37780795
1.3806925 0.6767992 -3.8446577 0.5950908 0.3067407 0.15076916 1.7920278 -1.6802154
3.781212 0.82884866 0.2928721 0.2786407 -6.9925523 1.2631336 1.9124389 0.59694237
0.17608881 -0.9942803 -3.2469945 1.1696918 0.0107671 0.16537195 -0.33916238 -0.35255775
-0.6851227 -0.36397776 3.8690379 -1.1929443 0.0027204147 -0.024790876 3.1318438 2.063973
-1.7040193 0.23354085 0.5018813 0.06698172 -0.17908032 1.6451396 -3.3129556 -0.25089136
0.39649308 0.55583626 -1.8409835 3.0205705 2.7776985 1.0947812 7.677429 -2.003233
-0.45531753 1.4568458 -0.2536152 0.4735084 -0.12951823 0.024537485 -1.7463354 -1.7413167
1.4149473 -3.4074605 0.008966333 1.3454369 1.07413 -2.9431803 -5.3507338 1.0353838
0.005943398 0.05825867 1.0657688 3.8158543 -5.5649166 0.18976769 0.014993282 0.46679765
4.444816 0.1959168 1.0391936 0.64060694 -0.59388405 -0.7402062 1.6637601 -0.18820757
-1.1033263 -1.8408668 -0.014111756 0.17920351 0.025810216 6.334393 6.766103 0.35486305
-0.20343229 -0.12815855 11.173071 0.7907944 1.533773 -0.04718455 -0.0077545643 -0.24558963
0.13058336 -2.8330755 2.3475757 0.14513046 -0.44462848 -0.31475106 4.0966716 0.23822968
-0.7946139 -0.23512505 -0.08749643 -0.04073386 -3.1712296 -3.6188464 -2.906255 -0.059537224
-0.278473 -0.4650164 -7.7901435 -1.2995491 1.8258302 -0.18260095 -1.0211473 -1.2177019
-1.0202465 -0.09184454 -0.28072956 -0.9533814 -0.020337692 -0.17189719 1.3858562 0.7970158
-5.629963 0.29026863 1.0395161 0.45390543 -1.3238151 0.71226805 -1.530066 1.5943543
00000000: 91b8 d1bf 8487 15bf 0934 1fc0 1fcf 8e3e
00000010: 393a 7d3f c49f 6bbf 4bd2 3dbf eeab e3bf
00000020: 7a2b 8b40 96ce db3e 6dbc 893e bb5f da3e
00000030: 7442 46be 9bc0 8abe a070 bc3d 5b92 f63f
00000040: 7b20 5c3d ee79 39c0 811c 87be 881c f140
00000050: a3ee 2fbf aebc 653f 2aee 9b3e ba72 44bd
00000060: 5554 533f 8ef5 fe3e 1832 2540 780b 20bf
00000070: 0827 553f 5432 e3bc c437 513e 4fb9 903e
00000080: 1cf0 9f3f 8b40 b4c0 8103 48c0 898f af3e
00000090: d0a2 c7bc 56fc ca3c b174 bf3f 45a5 e9c0
000000a0: ffc8 bb40 7b0b 593e 9d02 dd3e b5dc 4f3e
000000b0: 3137 3440 b320 1240 43f0 3540 85c3 cb3c
000000c0: 2fb0 0fbd 6710 1fbc 2c2e f740 1b65 91bd
000000d0: d1a6 373f 81dc a4be e88b 133e 0b70 c13e
000000e0: 88ba b03f b642 2d3f df0e 76c0 df57 183f
000000f0: 1e0d 9d3e 3b63 1a3e 2b61 e53f 4c11 d7bf
00000100: 61ff 7140 6d2f 543f 55f3 953e fea9 8e3e
00000110: fdc2 dfc0 5dae a13f ccca f43f 37d1 183f
00000120: a050 343e 2789 7ebf c2ce 4fc0 76b8 953f
00000130: 7e68 303c 4457 293e b1a6 adbe 7382 b4be
00000140: 3464 2fbf 4b5b babe 519e 7740 66b2 98bf
00000150: fc48 323b 3c16 cbbc 2170 4840 2218 0440
00000160: 4e1d dabf 5525 6f3e 4b7b 003f b62d 893d
00000170: d560 37be ef93 d23f 7707 54c0 d574 80be
00000180: 2401 cb3e 494b 0e3f 59a5 ebbf 0751 4140
00000190: d0c5 3140 ca21 8c3f 80ad f540 f834 00c0
000001a0: 611f e9be ec79 ba3f dad9 81be b16f f23e
000001b0: 6da0 04be d602 c93c eb87 dfbf 77e3 debf
000001c0: fe1c b53f d513 5ac0 87e7 123c 4737 ac3f
000001d0: 187d 893f 115d 3cc0 3639 abc0 7587 843f
000001e0: d6c0 c23b a5a0 6e3d 1d6b 883f f536 7440
000001f0: cc13 b2c0 7652 423e 62a6 753c 1a00 ef3e
00000200: ef3b 8e40 6a9e 483e 4c04 853f d1fe 233f
00000210: c908 18bf 277e 3dbf 17f6 d43f 7cb9 40be
00000220: cc39 8dbf 86a1 ebbf ff34 67bc 2081 373e
00000230: f26f d33c 59b3 ca40 ea83 d840 9cb0 b53e
00000240: 8e50 50be ff3b 03be e6c4 3241 8071 4a3f
00000250: ac52 c43f 9644 41bd 001a febb d97b 7bbe
00000260: a5b7 053e 1c51 35c0 ae3e 1640 149d 143e
00000270: 58a6 e3be 0d27 a1be ef17 8340 7bf2 733e
00000280: d16b 4bbf 9fc4 70be 5431 b3bd 8cd8 26bd
00000290: 6df5 4ac0 2e9b 67c0 1500 3ac0 4edd 73bd
000002a0: 0394 8ebe a116 eebe db48 f9c0 a057 a6bf
000002b0: ceb4 e93f befb 3abe f4b4 82bf a8dd 9bbf
000002c0: 7097 82bf fd18 bcbd c9bb 8fbe ce10 74bf
000002d0: 3b9b a6bc d105 30be bc63 b13f 3a09 4c3f
000002e0: a828 b4c0 179e 943e dd0e 853f 4b66 e83e
000002f0: c672 a9bf 3357 363f 34d9 c3bf cd13 cc3f

corr_gg_l1.bias f4 [32]
0.17507526 0.6238166 -0.11785047 -0.051856164 -0.3101648 -0.018402131 0.033184625 -0.04141871
-0.01248099 -0.004496282 0.018654251 -0.011015443 -0.047754098 -0.0039201486 0.02114194 -0.09276235
-0.009856527 -0.1547525 -0.14323083 0.0096394755 0.015745886 0.0097001 -0.010212474 0.024750339
0.04587879 0.036119986 0.036089975 0.012215631 0.14741467 0.21286948 0.026830629 -0.014178255
00000000: ee46 333e 72b2 1f3f 965b f1bd 2167 54bd
00000010: eccd 9ebe 11c0 96bc 9aec 073d aaa6 29bd
00000020: 117d 4cbc 8c55 93bb cdd0 983c 1e7a 34bc
00000030: cd99 43bd 9774 80bb dd31 ad3c 30fa bdbd
00000040: 457d 21bc 7077 1ebe 1aab 12be e4ee 1d3c
00000050: 84fd 803c 2bed 1e3c 3852 27bc 39c1 ca3c
00000060: 66eb 3b3d 8df2 133d 15d3 133d 1224 483c
00000070: dff3 163e 75fa 593e e8cb db3c e94b 68bc

corr_gg_l2.weight f4 [32, 6]
-0.24429326 -9.448562 -0.005916953 -0.040629182 -0.5304112 3.378739 -3.0795763 -2.5945845
-0.14606854 -0.4981255 0.011950161 1.1234447 1.0526843 1.3592342 -0.054533627 1.1241018
-0.7518856 -1.3146496 -5.97405 2.579384 -0.8503286 -0.6347741 -0.46880123 -3.4947777
-3.151849 -1.7743975 -1.7230462 0.34872594 -0.74466 1.2081978 2.128444 1.425034
4.078512 -9.041768 -6.533382 1.5074095 0.40791687 0.8011447 -1.5967362 20.77608
-15.612762 0.9733346 -0.15293692 4.673319 -3.3875263 2.0014522 4.217602 -0.94220227
0.21901526 -0.347045 -6.217099 0.029480245 0.95126486 1.199602 3.4310253 1.2276114
-3.795847 -0.9537129 0.35367125 1.4028312 3.4988759 2.1271806 -0.1666863 -0.17356871
2.3877358 -0.39638686 1.13573 -0.13659558 1.7475048 -4.285747 -3.063334 0.32798058
-3.6194477 -0.41242778 0.5204465 0.5183946 0.0020954888 1.2029432 2.1645167 1.160354
0.8196126 -3.0310276 -3.0136583 0.6691366 0.99793655 -0.23541564 -3.7028637 -3.905442
2.8978775 -3.1366184 1.0730379 3.1519413 0.68228364 6.8260627 -3.1876073 -0.36492366
3.4484482 0.8269047 -2.3944821 2.5939646 1.7925763 1.2447124 12.8928995 -0.89808494
0.33043534 -1.2589481 0.45334947 -3.1197011 0.9801723 4.1927247 -2.6010442 0.26876938
1.0987358 -1.5324004 -0.819606 2.967817 2.0784922 5.7166243 8.424583 -2.1116233
0.17621423 0.62251365 -1.5276535 -10.606329 9.081441 0.47587848 0.81915313 -2.046202
-1.942135 1.943654 -0.71392804 -0.24991407 0.95440024 0.36206463 0.26059833 0.15345941
-0.1853405 0.8633346 -0.28198195 0.9459066 1.557797 -25.832918 -17.55588 0.5702403
-0.045530833 -0.39076015 11.792641 0.72784436 0.34779465 1.3557862 -1.0314066 0.9342218
-1.6866858 2.8731122 -2.801521 0.32471368 0.7122968 1.3617945 -2.1020005 1.0342711
-0.21847028 1.8021894 0.059590157 -0.16240636 3.7243354 7.468592 6.377933 0.49501386
-2.500316 -1.5009321 -0.77029455 -1.9881967 1.257567 2.3617196 -0.8068379 -1.2261037
-1.2210858 -0.5250527 -0.09575402 1.5499864 1.55255 2.6444838 0.9643998 0.11743907
3.4786 1.3943533 3.005995 -1.965277 2.4062784 1.8885679 -2.815891 -2.592109
00000000: 0328 7abe 4f2d 17c1 00e3 c1bb c96a 26bd
00000010: 07c9 07bf 433d 5840 c717 45c0 ac0d 26c0
00000020: fe92 15be 4e0a ffbe 9cca 433c 09cd 8f3f
00000030: 5cbe 863f 63fb ad3f a75e 5fbd 91e2 8f3f
00000040: 937b 40bf 7046 a8bf 6b2b bfc0 a114 2540
00000050: 23af 59bf 8e80 22bf b706 f0be 70aa 5fc0
00000060: e5b7 49c0 751f e3bf c78c dcbf 358c b23e
00000070: 0aa2 3ebf 3aa6 9a3f 6d38 0840 8467 b63f
00000080: 2c83 8240 15ab 10c1 7711 d1c0 cbf2 c03f
00000090: 7bda d03e d217 4d3f da61 ccbf 6935 a641
000000a0: e0cd 79c1 752c 793f 7f9b 1cbe d48b 9540
000000b0: 3bcd 58c0 cb17 0040 98f6 8640 2b34 71bf
000000c0: 8945 603e e2af b1be 7af2 c6c0 8e80 f13c
000000d0: 1886 733f 8f8c 993f eb95 5b40 5f22 9d3f
000000e0: 28ef 72c0 8726 74bf 6614 b53e f98f b33f
000000f0: 95ed 5f40 ba23 0840 d0af 2abe ffbb 31be
00000100: aad0 1840 38f3 cabe 9a5f 913f b6df 0bbe
00000110: 3dae df3f d724 89c0 aa0d 44c0 12ed a73e
00000120: 08a5 67c0 bc29 d3be fb3b 053f 82b5 043f
00000130: 7854 093b 0bfa 993f 7187 0a40 7b86 943f
00000140: 22d2 513f 5bfc 41c0 c7df 40c0 894c 2b3f
00000150: c578 7f3f cc10 71be b8fb 6cc0 c3f2 79c0
00000160: d376 3940 5bbe 48c0 4e59 893f 68b9 4940
00000170: 24aa 2e3f 1b6f da40 c201 4cc0 46d7 babe
00000180: 60b3 5c40 07b0 533f 323f 19c0 8403 2640
00000190: 2473 e53f bc52 9f3f 5149 4e41 e5e8 65bf
000001a0: d22e a93e 3625 a1bf 6c1d e83e 2fa9 47c0
000001b0: 92ec 7a3f cd2a 8640 8277 26c0 249c 893e
000001c0: 60a3 8c3f b225 c4bf b3d1 51bf b7f0 3d40
000001d0: 0406 0540 96ee b640 18cb 0641 d624 07c0
000001e0: 8171 343e 0e5d 1f3f 268a c3bf 86b3 29c1
000001f0: 954d 1141 58a6 f33e 05b4 513f f9f4 02c0
00000200: e197 f8bf a7c9 f83f fdc3 36bf 79e9 7fbe
00000210: 9353 743f 8960 b93e 256d 853e 7724 1d3e
00000220: e6c9 3dbe 7f03 5d3f f05f 90be ef26 723f
00000230: e465 c73f d1a9 cec1 7172 8cc1 45fb 113f
00000240: 8a7e 3abd b711 c8be a8ae 3c41 0254 3a3f
00000250: 2412 b23e 678a ad3f 2205 84bf 2929 6f3f
00000260: 52e5 d7bf 12e1 3740 1f4c 33c0 df40 a63e
00000270: 1559 363f 484f ae3f 2d87 06c0 ff62 843f
00000280: acb6 5fbe 24ae e63f cf14 743d da4d 26be
00000290: 835b 6e40 b5fe ee40 0718 cc40 7572 fd3e
000002a0: 2d05 20c0 8b1e c0bf 0632 45bf 3b7d febf
000002b0: f5f7 a03f 6a26 1740 ee8c 4ebf f7f0 9cbf
000002c0: 8a4c 9cbf db69 06bf af1a c4bd f465 c63f
000002d0: f5b9 c63f 393f 2940 e8e2 763f e583 f03d
000002e0: 62a1 5e40 2b7a b23f 3962 4040 328e fbbf
000002f0: 7700 1a40 98bc f13f 8f37 34c0 1de5 25c0

corr_gg_l2.bias f4 [32]
-0.7333565 1.2788414 -1.8656207 -1.3406541 1.7795517 -1.7439274 -2.266979 -0.38061103
-0.48380074 -0.56095093 -1.3874025 -0.76648617 0.46568474 -0.51763105 0.2261794 -0.61538714
-1.8881142 -1.4889657 -1.6214584 -2.133828 -1.9621568 0.027132707 -0.99142796 -2.3242254
-1.0902451 0.46193683 -0.27808642 -1.4330581 0.48523167 0.14023058 -1.1347969 -0.65708613
00000000: 40bd 3bbf 13b1 a33f a9cc eebf 8e9a abbf
00000010: 5ac8 e33f 0339 dfbf 2f16 11c0 73df c2be
00000020: bbb4 f7be 7b9a 0fbf 6896 b1bf 7038 44bf
00000030: 3b6e ee3e 7883 04bf 939b 673e 038a 1dbf
00000040: baad f1bf 6e96 bebf f38b cfbf a390 08c0
00000050: f427 fbbf 6945 de3c 39ce 7dbf 1cc0 14c0
00000060: 278d 8bbf fc82 ec3e 5861 8ebe 736e b7bf
00000070: 4970 f83e 9b98 0f3e 0641 91bf cc36 28bf

corr_gg_l3.weight f4 [32, 32]
0.23138928 0.7860859 0.82348377 -0.54268306 0.05339149 0.007931263 0.27542394 0.7191087
0.22303176 0.16704306 -0.88809997 -0.9892418 0.16009276 -0.0128468275 0.115589984 0.2291235
0.30461907 -1.1743046 0.92632014 -0.18933262 0.21245399 -0.44800472 1.1351911 -0.11416421
-0.19546306 -0.5081038 0.27599505 0.8179144 0.076008365 0.9336667 0.314472 -0.6574542
0.40311787 -0.2184355 0.24452148 0.048905592 0.0560256 -1.4838928 -0.9428161 -0.15228996
-1.2459714 -0.32727537 -0.28661424 1.4835421 0.34476742 0.28907505 -1.113475 0.29583812
0.9084715 -0.033425447 -0.21311142 -0.3719247 -0.7319956 -0.34696048 -0.21654503 0.8032074
-2.4944148 -0.23689105 -0.3458317 -0.1385441 1.3749323 0.17108595 -0.32698423 0.16012253
0.37941974 -0.6825156 -0.16650002 0.068926506 0.069572985 0.57616484 0.5999596 1.2930588
0.6241585 -0.48243335 -0.61345595 0.034049217 1.8167263 -0.15889432 0.014817049 -0.710914
1.269206 0.0021068377 -0.3698424 -0.54999095 0.6385053 0.0771651 0.36019456 -0.4899232
0.014689993 1.1055745 -0.13410822 -0.52533096 -0.6169634 0.78401613 -0.04208602 0.46176758
0.09207173 -0.31955272 0.26020557 -0.80420333 -0.22011772 0.14082979 0.118772484 0.6166606
1.3819258 -0.40129015 0.2766893 -1.4464707 0.041755218 0.8852491 1.132478 -0.45717964
0.09254199 -0.042074185 -0.17777893 -0.0593637 0.6124919 0.96767086 0.8207295 0.17550382
-0.3067723 0.034457043 0.49144492 0.41298914 0.004647938 0.02731922 -0.43578258 -0.76016724
-0.35831475 -0.6768239 -0.5480108 0.26953965 0.11221338 0.19394259 0.84280246 -0.27828163
-0.9005317 -0.49196914 1.612416 0.37436903 0.09902365 0.6854364 -0.30723435 -1.366987
-0.15722446 0.51687187 0.4622211 0.37545812 -0.3678573 -0.3266115 -0.61289924 0.4723259
0.10859459 0.5318557 -0.39850816 1.0775143 0.1671557 -0.4740027 -0.4343562 0.04441949
0.11916237 -0.029320676 0.42780557 -0.87707573 0.63756305 -0.7043908 0.81295806 -0.18735695
-0.48412788 -0.3018908 -1.2025161 0.49946395 -0.023530254 0.4278782 0.19789764 0.37934154
-0.05143798 -0.70865715 -0.07807197 -0.1763066 0.8603098 -0.9443851 0.19230269 0.08869284
-0.009260228 -0.47189298 -0.8855849 1.0827278 0.016996011 0.121473484 -0.03731826 0.08129152
-0.0068243467 -0.17260356 0.011233864 0.14370967 -0.074149385 0.5236421 -2.6027546 -0.7652728
-0.77829105 1.1768073 -1.1096659 -0.18529478 0.4309858 -1.04223 0.08703617 0.70587635
0.3866386 0.08009997 -0.38512832 0.25006944 1.3296797 -0.3289369 -0.08918245 -1.0600978
0.3092929 -0.7840893 -0.033683214 0.9008872 -0.31622013 0.09289343 0.8819395 0.5146106
0.22817859 0.5174038 0.6304464 -0.40981403 0.6097084 -0.43253672 -0.009708548 0.6567195
0.3728811 0.5900591 -0.115137845 -0.3477632 0.21072043 0.5691186 0.09580561 0.015469976
-0.35865068 -0.6966228 0.68655145 -0.038021807 0.22948118 0.29835227 0.27577376 0.1091777
0.8707403 0.15610845 0.45680615 0.06153575 0.4439217 0.4878467 0.28246132 -0.91392857
00000000: 50f1 6c3e ed3c 493f d5cf 523f 47ed 0abf
00000010: 09b1 5a3d 21f2 013c 5e04 8d3e 8217 383f
00000020: 7062 643e 560d 2b3e 855a 63bf f33e 7dbf
00000030: 5bef 233e 807b 52bc 71ba ec3d 5a9f 6a3e
00000040: 08f7 9b3e 9d4f 96bf 5123 6d3f 69e0 41be
00000050: 8a8d 593e e060 e5be f14d 913f edce e9bd
00000060: 7827 48be 1713 02bf 394f 8d3e d762 513f
00000070: 46aa 9b3d c804 6f3f 7902 a13e eb4e 28bf
00000080: 7765 ce3e 8ead 5fbe d763 7a3e 3b51 483d
00000090: 197b 653d 33f0 bdbf 655c 71bf e6f1 1bbe
000000a0: fe7b 9fbf a390 a7be 1abf 92be b5e4 bd3f
000000b0: 5b85 b03e a501 943e 5986 8ebf 1878 973e
000000c0: 9791 683f 1fe9 08bd e139 5abe ea6c bebe
000000d0: 1064 3bbf cea4 b1be fbbd 5dbe 009f 4d3f
000000e0: 7ea4 1fc0 9193 72be da10 b1be 81de 0dbe
000000f0: c8fd af3f 2831 2f3e 7a6a a7be 29f7 233e
00000100: 4e43 c23e 58b9 2ebf fb7e 2abe 5729 8d3d
00000110: 487c 8e3d 8a7f 133f f496 193f f382 a53f
00000120: dac8 1f3f 8101 f7be 730b 1dbf 3177 0b3d
00000130: 7d8a e83f 31b5 22be 35c3 723c 76fe 35bf
00000140: 5875 a23f df12 0a3b fc5b bdbe 35cc 0cbf
00000150: 1575 233f bc08 9e3d 6c6b b83e 37d7 fabe
00000160: 4cae 703c 7783 8d3f aa53 09be 177c 06bf
00000170: 50f1 1dbf 48b5 483f 6462 2cbd cd6c ec3e
00000180: 1a90 bc3d 6a9c a3be aa39 853e 45e0 4dbf
00000190: 8a66 61be af35 103e fd3e f33d 78dd 1d3f
000001a0: f2e2 b03f e775 cdbe 38aa 8d3e f425 b9bf
000001b0: 8507 2b3d af9f 623f 0af5 903f 7313 eabe
000001c0: a886 bd3d fb55 2cbd ae0b 36be 5a27 73bd
000001d0: 45cc 1c3f 47b9 773f 541b 523f 46b7 333e
000001e0: 4211 9dbe d422 0d3d ab9e fb3e 5073 d33e
000001f0: bb4d 983b 8fcc df3c e51e dfbe 529a 42bf
00000200: 0875 b7be 5544 2dbf 704a 0cbf 1a01 8a3e
00000210: 21d0 e53d e398 463e e7c1 573f ee7a 8ebe
00000220: 3f89 66bf 61e3 fbbe a663 ce3f 4cad bf3e
00000230: e9cc ca3d c378 2f3f d24d 9dbe 6ef9 aebf
00000240: 73ff 20be b751 043f 3ea8 ec3e 0c3c c03e
00000250: cb57 bcbe 9f39 a7be f7e6 1cbf b3d4 f13e
00000260: d766 de3d b227 083f 4309 ccbe fdeb 893f
00000270: dd2a 2b3e 7bb0 f2be f063 debe 36f1 353d
00000280: 670b f43d ea31 f0bc 5509 db3e 0988 60bf
00000290: 5537 233f f552 34bf 051e 503f 80da 3fbe
000002a0: 9cdf f7be 6e91 9abe 0cec 99bf bdb9 ff3e
000002b0: 85c2 c0bc da12 db3e aea5 4a3e 0e39 c23e
000002c0: a2b0 52bd 8e6a 35bf 32e4 9fbd b889 34be
000002d0: 433d 5c3f 39c3 71bf ffea 443e 97a4 b53d
000002e0: 36b8 17bc f59b f1be b1b5 62bf d396 8a3f
000002f0: 383b 8b3c 17c7 f83d 08db 18bd 2b7c a63d
00000300: c59e dfbb fdbe 30be 3e0e 383c a128 133e
00000310: a2db 97bd 690d 063f 8893 26c0 ebe8 43bf
00000320: 153e 47bf 9fa1 963f 8809 8ebf eabd 3dbe
00000330: 2caa dc3e cb67 85bf 0540 b23d 50b4 343f
00000340: 7ff5 c53e 740b a43d 8a2f c5be 1a09 803e
00000350: f232 aa3f 6b6a a8be 4aa5 b6bd 49b1 87bf
00000360: a45b 9e3e 14ba 48bf 69f7 09bd 8ba0 663f
00000370: 9be7 a1be e93e be3d c9c6 613f 85bd 033f
00000380: a6a7 693e 9374 043f ef64 213f 25d3 d1be
00000390: da15 1c3f 7475 ddbe 9a10 1fbc c51e 283f
000003a0: 46ea be3e 1d0e 173f 64cd ebbd 050e b2be
000003b0: 19c7 573e c2b1 113f bb35 c43d c875 7d3c
000003c0: 10a1 b7be df55 32bf d6c1 2f3f c1bc 1bbd
000003d0: 1dfd 6a3e a1c1 983e 3832 8d3e 8f98 df3d
000003e0: d6e8 5e3f e5da 1f3e 7fe2 e93e e90c 7c3d
000003f0: b449 e33e 0bc7 f93e c59e 903e 39f7 69bf

corr_gg_l3.bias f4 [32]
-0.015811041 -0.0082938755 0.5294668 0.2513718 -0.20035215 -0.074725434 0.012166392 0.05502907
-0.093406 -0.006720076 -0.054401714 -0.048425045 -0.07604344 0.05093903 -0.44945398 -0.015571948
-0.6488207 0.36403027 0.041134566 -0.0013610665 -0.014721904 -0.22658716 -0.08505936 0.1199606
0.067497 -0.04496338 0.023994528 0.051164526 -0.083437644 -0.07781051 -0.07103199 -0.06740549
00000000: 2886 81bc 09e3 07bc 238b 073f ceb3 803e
00000010: 1d29 4dbe a609 99bd 8c55 473c 2966 613d
00000020: a54b bfbd 1534 dcbb 55d4 5ebd 5759 46bd
00000030: aabc 9bbd 72a5 503d d51e e6be 7c21 7fbc
00000040: 1d19 26bf 2d62 ba3e b87c 283d d065 b2ba
00000050: 2434 71bc 7706 68be 9a33 aebd e7ad f53d
00000060: de3b 8a3d 852b 38bd 2c90 c43c e591 513d
00000070: 5be1 aabd 1e5b 9fbd 3879 91bd e40b 8abd

corr_gg_l4.weight f4 [32, 32]
-0.9618451 -2.5108848 -1.580282 1.113905 1.7706878 -0.8288293 0.398594 -0.59227854
-0.49343956 0.54789793 0.141967 2.8585126 0.4295551 -0.35289913 -0.26577523 -1.93752
-0.7752232 2.0153565 -2.0215664 0.2338778 0.0583226 -0.0005672015 -1.3136095 1.6957451
-1.5374291 -1.3574134 -0.69846463 -0.85394967 -0.5339447 -1.2249697 1.0606196 1.6823503
-1.6561066 -1.0824009 -1.1030527 0.5655341 0.56024903 -1.8392015 3.4474978 -1.2770313
2.0809531 0.4644115 -0.66068524 0.12068754 0.6356501 -0.76541406 1.6825627 -0.529254
-2.302237 1.5323106 -1.2900633 2.3451743 2.767453 1.4641387 0.0075615216 2.7368753
-3.8815963 0.22486144 1.3916054 2.3790915 -1.6476872 -0.14490308 2.3696353 0.7866284
-0.17680053 0.32754534 -0.75252044 0.69001764 -1.6447443 0.015005489 -0.00071319146 -0.34729704
0.4906769 -0.146546 -0.103830256 -0.44353124 -1.4568084 -0.09769578 -0.2686894 -0.7776224
-0.2181077 0.97831917 0.26219678 -0.055823755 0.120651945 -0.31544912 -1.210723 0.08758202
0.16986418 -0.97437805 -2.3503582 -0.19457525 0.5770654 0.1422313 0.42829955 0.89141387
-1.3761419 -1.5736353 0.022309162 1.3609004 0.33179963 -0.040474523 -0.09654396 -1.4517235
0.4923494 0.18461932 0.8985982 0.3587572 -0.36810908 0.59807354 0.5127156 -0.39624947
0.3874599 -0.087640174 -0.2961108 0.5698713 -0.06045171 0.06499445 -0.6527014 0.98391926
-0.08884118 -0.21992026 -0.84541833 -0.19566274 0.19829135 -0.76704127 1.0348914 0.5549964
-0.53513867 -1.1503528 -2.020779 0.5264153 1.0329303 0.44665068 2.0465794 -0.5239793
-0.0476176 0.3395276 0.947288 0.54708445 -1.3786992 -0.2393336 -1.570138 -1.7209115
-0.49076444 1.9076219 -0.6760979 -0.04568878 0.32373187 1.1140956 -1.6939547 0.31372285
0.05862771 1.1053938 0.1680657 0.14072406 -0.07562057 -1.148984 -0.05746238 0.91534364
-1.453144 -0.18868172 0.039312735 2.9888995 -0.050543897 -0.06207229 0.6801293 1.43854
0.15518506 0.03688462 -0.70038474 0.62995815 -1.33372 -0.18656698 0.8412374 -0.53497434
0.164806 2.5633838 -0.5408478 0.8850241 0.16900697 0.7795592 -1.4416817 -0.11480007
-0.16270833 -0.80035114 -1.4718384 -0.22152427 -1.0311683 -1.0881974 -0.28721026 -0.259825
-2.2302747 -3.0789642 -2.3427567 1.2675838 1.3422991 -1.8372592 4.4954343 -1.2198853
-0.5170958 0.8415271 0.10418822 1.7751157 0.4011709 -1.3581997 0.27771547 -1.425503
-1.1889994 2.9032693 -2.0698552 2.580288 2.4593883 0.1987143 -0.9684244 2.1195934
-1.4014117 0.03296866 0.5383435 2.6372666 -0.93127126 -1.2636027 1.3358974 0.78590125
-0.09741475 -0.8120159 -0.8215588 0.26601225 1.0667456 -0.681325 0.052280888 -0.0061696162
-0.46593884 -0.42501795 0.14166625 -0.42699006 0.23986691 1.0356828 0.010559282 0.4866659
-0.47466657 0.3429993 0.033981096 0.30514365 0.013269292 0.333805 0.21398595 0.24322093
-1.7562194 0.60595727 1.5061772 0.049990986 -0.09280925 -0.08778404 0.43879578 0.35456425
00000000: 7b3b 76bf 56b2 20c0 ae46 cabf 7094 8e3f
00000010: e6a5 e23f 282e 54bf 8314 cc3e 919f 17bf
00000020: 1ca4 fcbe 0a43 0c3f cc5f 113e dff1 3640
00000030: a5ee db3e 32af b4be b113 88be a800 f8bf
00000040: 0775 46bf 9afb 0040 5861 01c0 a97d 6f3e
00000050: aee3 6e3d 40b0 14ba 5b24 a8bf 2d0e d93f
00000060: 7aca c4bf b9bf adbf 94ce 32bf 729c 5abf
00000070: 9ab0 08bf cfcb 9cbf 62c2 873f 4157 d73f
00000080: 4dfb d3bf 1d8c 8abf d530 8dbf d8c6 103f
00000090: 7b6c 0f3f f46a ebbf cea3 5c40 c375 a3bf
000000a0: 562e 0540 58c7 ed3e ab22 29bf 072b f73d
000000b0: f7b9 223f 2df2 43bf 375e d73f 317d 07bf
000000c0: da57 13c0 c122 c43f cb20 a5bf 5617 1640
000000d0: f31d 3140 e668 bb3f a4c6 f73b f728 2f40
000000e0: 136c 78c0 1442 663e 2020 b23f 0943 1840
000000f0: 6ae7 d2bf 7961 14be 1ba8 1740 7b60 493f
00000100: 330b 35be 06b4 a73e 2ea5 40bf ffa4 303f
00000110: fb86 d2bf 95d9 753c 78f5 3aba ebd0 b1be
00000120: 013a fb3e 2810 16be f5a4 d4bd 8716 e3be
00000130: b378 babf ba14 c8bd a891 89be 4312 47bf
00000140: a057 5fbe 2073 7a3f a83e 863e 73a7 64bd
00000150: 5e18 f73d 8c82 a1be f9f8 9abf 345e b33d
00000160: e0f0 2d3e d770 79bf 456c 16c0 bc3e 47be
00000170: 8fba 133f 15a5 113e 144a db3e b333 643f
00000180: 6b25 b0bf e26c c9bf b4c1 b63c fc31 ae3f
00000190: a4e1 a93e 9dc8 25bd d7b8 c5bd 13d2 b9bf
000001a0: 3815 fc3e d90c 3d3e 880a 663f 06af b73e
000001b0: cb78 bcbe 591b 193f 5441 033f 36e1 cabe
000001c0: 2561 c63e b17c b3bd d69b 97be 16e3 113f
000001d0: 369c 77bd cf1b 853d 7017 27bf 22e2 7b3f
000001e0: 5df2 b5bd c732 61be 566d 58bf d05b 48be
000001f0: e30c 4b3e d15c 44bf 5277 843f 3e14 0e3f
00000200: d9fe 08bf c33e 93bf 7154 01c0 27c3 063f
00000210: 0f37 843f 66af e43e 28fb 0240 8223 06bf
00000220: ac0a 43bd 90d6 ad3e 7781 723f ba0d 0c3f
00000230: 3779 b0bf de13 75be 48fa c8bf d446 dcbf
00000240: 7a45 fbbe f42c f43f c114 2dbf 2824 3bbd
00000250: 2fc0 a53e af9a 8e3f 82d3 d8bf 48a0 a03e
00000260: 9c23 703d 8b7d 8d3f 6a19 2c3e f819 103e
00000270: f5de 9abd e811 93bf ac5d 6bbd f653 6a3f
00000280: 9f00 babf c835 41be 6406 213d 214a 3f40
00000290: 1e07 4fbd 833f 7ebd f41c 2e3f 1422 b83f
000002a0: d5e8 1e3e 5414 173d 6a4c 33bf f044 213f
000002b0: 56b7 aabf 6a0b 3fbe 565b 573f 14f4 08bf
000002c0: e7c2 283e 7b0e 2440 0075 0abf f090 623f
000002d0: 2a10 2d3e 3191 473f 0789 b8bf 4d1c ebbd
000002e0: 039d 26be d0e3 4cbf 3365 bcbf 42d7 62be
000002f0: 53fd 83bf 0d4a 8bbf 390d 93be c807 85be
00000300: d2bc 0ec0 c00d 45c0 baef 15c0 3040 a23f
00000310: 75d0 ab3f 4f2b ebbf 99da 8f40 3425 9cbf
00000320: 6460 04bf 526e 573f a260 d53d fe36 e33f
00000330: 4666 cd3e 7dd9 adbf b930 8e3e e276 b6bf
00000340: 2231 98bf 2acf 3940 8278 04c0 7023 2540
00000350: 9e66 1d40 c37b 4b3e a9ea 77bf 6ba7 0740
00000360: 7561 b3bf 250a 073d e1d0 093f fac8 2840
00000370: cb67 6ebf bcbd a1bf b0fe aa3f d330 493f
00000380: 6281 c7bd 46e0 4fbf ad51 52bf c232 883e
00000390: 1f8b 883f 516b 2ebf 7c24 563d 7e2a cabb
000003a0: 898f eebe f49b d9be f510 113e 719e dabe
000003b0: ac9f 753e 4191 843f d700 2d3c 462c f93e
000003c0: 7f07 f3be 9b9d af3e c32f 0b3d ca3b 9c3e
000003d0: 7267 593c 7de8 aa3e 221f 5b3e e80e 793e
000003e0: cccb e0bf 0420 1b3f 6aca c03f 59c3 4c3d
000003f0: c712 bebd 1ec8 b3bd d7a9 e03e 7289 b53e

corr_gg_l4.bias f4 [32]
0.3468765 -0.9404333 6.0765715 1.0008721 0.6699892 0.48160762 -0.601631 -0.74438745
1.4608324 11.224996 -0.07493729 0.14525127 0.5900724 7.395122 3.7809079 0.55836004
4.624984 -0.36775887 0.22086681 11.282034 10.324164 0.54775345 0.6721948 0.7045376
0.5446991 -0.8715646 11.129173 -0.37269023 2.050169 0.42624944 -0.86212325 -0.16849765
00000000: cc99 b13e 3dc0 70bf 4673 c240 941c 803f
00000010: 6a84 2b3f 4695 f63e 7d04 1abf 2d90 3ebf
00000020: 8efc ba3f 9599 3341 b978 99bd c0bc 143e
00000030: fc0e 173f d7a4 ec40 65fa 7140 aff0 0e3f
00000040: deff 9340 e44a bcbe e92a 623e 3683 3441
00000050: c72f 2541 9239 0c3f f514 2c3f 935c 343f
00000060: 6671 0b3f dc1e 5fbf 1811 3241 41d1 bebe
00000070: f835 0340 5e3d da3e 1cb4 5cbf a68a 2cbe

corr_gg_out.weight f4 [1, 32]
-0.1408546 -0.16656919 -0.11454976 0.114679486 -0.07464662 -0.14365873 0.23491646 0.066081844
0.12956038 -0.0007527584 -0.064277105 -0.04765138 0.080433145 -0.06198927 -0.13780473 -0.10858739
0.09291681 -0.11614231 -0.14441785 0.0178096 0.028517168 0.17113361 0.038024385 -0.100661844
-0.22468227 0.11845975 -0.0033981646 -0.29437816 -0.06528543 0.08491178 -0.05797536 0.16728298
00000000: 303c 10be 1d91 2abe 1199 eabd 14dd ea3d
00000010: 54e0 98bd 461b 13be f18d 703e eb55 873d
00000020: 7aab 043e c354 45ba b7a3 83bd 182e 43bd
00000030: 22ba a43d 76e8 7dbd af1c 0dbe 1163 debd
00000040: 2b4b be3d 05dc edbd 46e2 13be 70e5 913c
00000050: d69c e93c a63d 2f3e 75bf 1b3d cc27 cebd
00000060: 1c13 66be 079b f23d beb3 5ebb bcb8 96be
00000070: 5eb4 85bd 3ae6 ad3d 9277 6dbd 3b4c 2b3e

corr_gb_l1.weight f4 [32, 4]
-0.7918328 -0.05140197 -1.6898475 -1.3168404 -0.36573014 -0.057654195 6.5369997 0.8149235
-0.10613868 0.034475394 -1.5233021 -1.0389619 0.27347457 0.04709632 7.333373 -0.20760512
-0.44417858 -0.13910483 5.1646314 0.052834608 0.27426335 0.12539092 2.8490012 0.42908123
-0.05835624 -0.8588482 1.4198626 -1.0032235 -0.34836164 6.092459 -0.43795362 0.10862354
2.2765598 -0.14707649 1.4023877 -0.2449718 -0.38065115 0.3015102 4.035822 0.45813718
0.14848343 1.2246826 0.25758314 1.6814187 -0.20740575 -0.0017313216 -1.2217556 0.07796523
0.7545376 0.9799433 1.0250137 -0.94568443 -0.75647396 -0.017758228 7.3286343 -0.039822698
-0.5153496 -0.027490053 6.8208194 -0.5897705 0.25769824 0.5688996 -2.2175975 0.29705247
1.0082048 -0.33914593 -2.706929 0.7191666 -0.50365114 0.031401385 -1.9831111 -1.0370879
1.5315719 0.92539734 -0.75531983 -2.746067 -1.3152136 0.47536498 -1.9178361 -1.6571461
-0.17262205 -0.24174608 3.3182795 -0.44009176 0.20555334 0.2742239 -1.7379256 0.2940437
0.21468647 -0.8337208 -0.49922127 0.6752797 0.37607515 -0.0788822 -6.885553 -0.056371693
1.7806298 -0.04598578 0.46165442 2.575619 0.56013155 0.6432012 -1.8096001 -0.45133367
0.7427948 -0.733122 -1.0204856 -1.7627498 -2.0486298 0.9187315 0.3154947 0.30402392
0.5209819 -0.06864132 -4.4337673 0.9089601 1.1598369 -0.6815801 -0.6737727 -2.147559
-0.3363967 0.19357236 -3.6629295 0.028693506 -0.5878677 -1.0000498 -1.5696362 -1.2400004
00000000: 8eb5 4abf df8a 52bd ec4c d8bf 3a8e a8bf
00000010: fb40 bbbe ce26 6cbd 1a2f d140 d49e 503f
00000020: 3c5f d9bd 1236 0d3d 90fb c2bf b4fc 84bf
00000030: dc04 8c3e 12e8 403d feaa ea40 7096 54be
00000040: 606b e3be 7f71 0ebe a944 a540 1a69 583d
00000050: 3f6c 8c3e 7a66 003e 0956 3640 89b0 db3e
00000060: f406 6fbd 7add 5bbf 0fbe b53f a169 80bf
00000070: 755c b2be 6df5 c240 753b e0be 0576 de3d
00000080: 28b3 1140 389b 16be 7181 b33f e3d9 7abe
00000090: b5e4 c2be 8c5f 9a3e 7425 8140 f590 ea3e
000000a0: 0a0c 183e 66c2 9c3f f0e1 833e ba38 d73f
000000b0: 2c62 54be 83ed e2ba 7d62 9cbf 3cac 9f3d
000000c0: 6029 413f 90dd 7a3f a633 833f 6018 72bf
000000d0: 47a8 41bf b479 91bc 2c84 ea40 201d 23bd
000000e0: f4ed 03bf d232 e1bc 2744 da40 33fb 16bf
000000f0: 06f1 833e 67a3 113f 1eed 0dc0 4317 983e
00000100: db0c 813f 89a4 adbe 533e 2dc0 4d1b 383f
00000110: 48ef 00bf bd9e 003d 96d6 fdbf 4cbf 84bf
00000120: 8c0a c43f d7e6 6c3f a45c 41bf 90bf 2fc0
00000130: eb58 a8bf 0a63 f33e a77b f5bf 5d1d d4bf
00000140: d6c3 30be 498c 77be b15e 5440 b553 e1be
00000150: 937c 523e 1367 8c3e 5974 debf e58c 963e
00000160: c5d6 5b3e ba6e 55bf ee99 ffbe 21df 2c3f
00000170: ec8c c03e fe8c a1bd 7356 dcc0 01e6 66bd
00000180: adeb e33f 965b 3cbd f85d ec3e f1d6 2440
00000190: c864 0f3f d5a8 243f faa0 e7bf 3515 e7be
000001a0: cd27 3e3f e2ad 3bbf 469f 82bf c9a1 e1bf
000001b0: c01c 03c0 fd31 6b3f 8588 a13e 06a9 9b3e
000001c0: 125f 053f d293 8cbd 6ce1 8dc0 9cb1 683f
000001d0: 8975 943f 097c 2ebf 5e7c 2cbf 9b71 09c0
000001e0: 303c acbe d537 463e 706d 6ac0 a50e eb3c
000001f0: 7f7e 16bf a201 80bf d7e9 c8bf 55b8 9ebf

corr_gb_l1.bias f4 [32]
-0.007491166 -0.11287628 -0.14987023 -0.049234133 -0.04903118 0.0050294693 0.8690122 -0.79610175
0.022052826 -0.28707343 0.24642143 0.0027350767 -0.7595858 0.17162621 0.023093916 -0.56695485
0.19944628 -0.006197698 -0.22882298 -0.31759173 0.3665751 0.08173494 0.54342645 -0.018703673
-0.060261045 -0.6280217 0.83417386 0.21768625 0.10383565 -0.54322 0.14464627 0.5090825
00000000: 7478 f5bb ae2b e7bd 9577 19be bba9 49bd
00000010: ebd4 48bd 3fce a43b 9577 5e3f 53cd 4bbf
00000020: 21a8 b43c 4afb 92be e655 7c3e f93e 333b
00000030: 3774 42bf c8be 2f3e 742f bd3c f423 11bf
00000040: a53b 4c3e 0f16 cbbb 9250 6abe 629b a2be
00000050: bbaf bb3e a664 a73d ff1d 0b3f 7238 99bc
00000060: 49d4 76bd 08c6 20bf 6b8c 553f 25e9 5e3e
00000070: c9a7 d43d 7710 0bbf 271e 143e 3b53 023f
