sparse_data_modeling/trained_models.npz (npz, 39582 bytes, 27 tensors)

corr_bb_l1.weight f4 [32, 3]
000000 e8 46 20 bf 4a 30 4e 3d 9c df c3 bf c2 48 a0 bd
       -0.62608194 0.05033902 -1.5302615 -0.078263775
000010 3a 1c c9 3e c6 59 19 bf 27 36 05 bf 3d 6e 95 3e
       0.39279348 -0.5990261 -0.52035755 0.29185668
000020 9f 36 24 bf b1 d2 33 bf 1a a7 d0 be a8 36 0b c0
       -0.64145845 -0.70243365 -0.40752488 -2.175211
000030 0a a9 9c be b0 48 aa 3e f2 ca 23 40 a6 ba 11 be
       -0.30597717 0.3325858 2.5592618 -0.14231357
000040 f2 3c f3 3c d0 29 4a c0 b0 e2 cf 3e 41 c4 92 bf
       0.029692147 -3.158802 0.40602636 -1.1466142
000050 29 84 e0 3f b3 13 26 bf d4 53 19 3e 4c db 9c 3f
       1.7540332 -0.6487381 0.14973384 1.2254424
000060 c1 a0 21 bf 29 0f 41 3f 61 cf 0c 3f db 60 a5 3e
       -0.63135916 0.7541376 0.55003935 0.32300457
000070 a9 2a 05 3f 56 85 a1 bf bf 71 3a 40 b6 1c b9 3e
       0.5201822 -1.2618816 2.9131925 0.36154717
000080 6b 62 82 bf 0f 49 a3 bf 2e d9 0e 3c 68 70 10 c0
       -1.0186285 -1.2756671 0.008718772 -2.2568607
000090 09 9e b1 3e 43 85 31 3f 43 7d cc 3f 8e 2e 02 3f
       0.34690884 0.69343966 1.5975727 0.50852287
0000a0 01 30 ca 3e 7d 0b ca bf 30 a6 6f be b6 0a e2 3e
       0.3948975 -1.5784756 -0.23403239 0.44148797
0000b0 f9 e7 df be c9 25 fc 3e 5d 35 6e be 20 8f 3d bf
       -0.4373167 0.49247578 -0.23262544 -0.74046516
0000c0 d6 05 ca be 17 7b b5 3e 67 16 21 3e 14 07 88 bd
       -0.39457577 0.35445473 0.15731202 -0.06641975
0000d0 6d 14 98 bf a0 61 eb bf a9 e8 16 3f b8 f6 f0 3e
       -1.1881233 -1.8389168 0.5894876 0.4706323
0000e0 67 19 c0 bf a5 9a a0 be a1 88 95 be 88 a9 ff 3f
       -1.5007752 -0.31367984 -0.29205802 1.9973612
0000f0 76 ec 36 3e 76 73 92 3e 7e d4 83 3f 58 68 46 3f
       0.1786364 0.28603715 1.0299222 0.77502966
000100 5a 69 8e be 9d 70 34 3e 30 18 36 3e 16 8a d1 bf
       -0.27814752 0.17621084 0.17782664 -1.6370265
000110 18 2a e6 bf 53 b6 a6 3f 98 e2 71 be a3 cc 2b c0
       -1.7981596 1.3024391 -0.23621595 -2.684365
000120 60 5c c6 be 09 3a 00 bf 37 46 9f 3d b3 c0 d3 be
       -0.38742352 -0.50088555 0.07777064 -0.41357955
000130 e5 52 d5 be e5 ff 99 3f 58 12 14 3f 08 a7 e6 3e
       -0.41664806 1.2031218 0.5784049 0.4504931
000140 05 39 92 3f a2 18 2c be 15 54 93 be f2 e5 8f 3f
       1.1423651 -0.16806272 -0.28775087 1.1242049
000150 c5 a7 2d 3e 0f 5c 5b 3f 3e db 09 3e 9e 4e 7f be
       0.1695853 0.85687345 0.1346254 -0.24932334
000160 8c 2c 3e 3f 69 5d 8a bf e1 c4 f8 3e 40 0b 09 3e
       0.74286723 -1.0809757 0.48587707 0.13383198
000170 1e 90 ad bf 87 74 64 3f c9 b7 10 be e7 71 ae 3e
       -1.3559606 0.89240307 -0.14132608 0.34071276

corr_bb_l1.bias f4 [32]
000000 99 d6 55 3f 25 ba 04 3f 53 19 01 3f 14 f3 57 3c
       0.83530575 0.51846534 0.50429267 0.013180513
000010 fd 07 7c 3e 5a ab fe 3d 90 67 9c 3f e5 7c b9 3d
       0.24612422 0.124350265 1.2219105 0.09057025
000020 c2 87 e7 3d 81 df 1a bf 04 87 e6 be 10 28 e5 bd
       0.113051906 -0.6049729 -0.45024884 -0.11189282
000030 46 2a 5c be 7a 0c 37 3f 3b 8f 3f bf 95 f8 35 3f
       -0.21500501 0.7150341 -0.7482793 0.7108243
000040 d1 d6 46 bf 94 e8 72 bd 62 aa 91 3e 60 61 81 3e
       -0.77671534 -0.059303835 0.28450304 0.25269604
000050 bc 13 e7 be b2 89 e6 be ee f3 b9 bd f5 c1 60 bf
       -0.45132244 -0.45026928 -0.09079729 -0.87795955
000060 e8 8b 5f 3f 44 0a b7 be 10 02 80 3e c3 00 d2 bb
       0.87322855 -0.3575002 0.25001574 -0.006408782
000070 7d b3 4a 3e 0e a8 3c be 07 0a 9d be db 6d 0f 3f
       0.19795032 -0.18423483 -0.30671713 0.56027

corr_bb_l2.weight f4 [32, 3]
000000 d3 00 12 bf f0 85 1d 3e f3 a4 ab 3f 4d 94 60 bd
       -0.5703251 0.15383124 1.3409714 -0.05482893
000010 ce 93 0c 3f ad 9f 3e bc 10 91 ab bf f2 11 52 3e
       0.5491303 -0.011634749 -1.3403645 0.20514658
000020 4e c1 3a be ea d2 17 3f 33 44 5a bf 81 b6 05 3f
       -0.18237802 0.59306204 -0.85260314 0.52231604
000030 4a 66 4e 40 db 15 3a be 92 41 2d c0 f5 03 18 bf
       3.2249932 -0.181724 -2.707127 -0.5938104
000040 dc 41 82 40 de 6f b9 bf 61 9f 83 bf d6 46 0c 41
       4.0705395 -1.4487264 -1.0283014 8.767294
000050 d3 61 65 c0 38 1c dc bf d3 e6 a7 bf 43 0b 05 bf
       -3.5840957 -1.7196112 -1.3117317 -0.5197031
000060 93 ca d2 bd 20 d6 92 bf 72 9c 1c c0 4d 3d 8f bf
       -0.10292544 -1.1471596 -2.4470487 -1.1190583
000070 f6 97 05 bf c8 d8 56 3f 8c fd 41 40 00 37 e3 bf
       -0.52185 0.8392453 3.0311003 -1.775116
000080 b6 88 21 40 8d 09 91 3f 13 80 70 bf 24 d0 02 40
       2.5239692 1.133104 -0.93945426 2.043954
000090 6b bb 8a bf a6 3f 1e bf 9c 26 b4 bf e8 aa 8f be
       -1.0838445 -0.6181587 -1.4074283 -0.2806008
0000a0 a2 88 81 be 5e 98 18 40 4f b5 6e 3e 42 72 1b bf
       -0.25299555 2.3842998 0.23311351 -0.6072122
0000b0 86 72 5c bf 27 35 7f be db c9 87 3e 2c 4d 0b bf
       -0.8611225 -0.2492262 0.2652119 -0.5441463
0000c0 dd 5b 79 be 4d 77 34 3d 63 7d 5e be df 42 fd be
       -0.2435145 0.044059087 -0.21727519 -0.4946508
0000d0 ac 5e 44 3f 8e 46 2f 3f 90 bb bd bd 2d 6f ab 3e
       0.7670696 0.6846703 -0.0926429 0.33483258
0000e0 b8 2b db be 7e c4 58 bf 36 65 6e 3e 40 25 c0 3f
       -0.42806792 -0.84674823 0.23280796 1.5011368
0000f0 2c 70 b2 be ef 6c 6e bf a2 cc f6 bb 4a a6 b9 bf
       -0.34851205 -0.9313497 -0.0075317184 -1.4503872
000100 9c 04 6d bf e9 c7 5f be ff 46 4e bf 95 c6 7f 3f
       -0.9258516 -0.21853603 -0.8057708 0.9991239
000110 8c 32 07 c0 b9 72 10 41 95 10 19 bf d7 52 32 c0
       -2.1124601 9.028008 -0.5979093 -2.7863061
000120 f9 d3 3a bf 0a c9 26 3f 1b fe e9 3f 00 62 a7 3e
       -0.72979695 0.6515051 1.8280672 0.32691956
000130 2e 25 1f 3f 40 da 12 3e 2a ca 94 be 26 2b 5f be
       0.62166107 0.14341068 -0.2906049 -0.21793804
000140 1e dc 6a be 35 5c 50 3f 90 ec ce 3e ec 11 15 3f
       -0.2293553 0.81390697 0.40414858 0.5823047
000150 26 6d 5d bf 68 33 47 bf d1 27 a5 3f 11 8b 4b bf
       -0.8649467 -0.77812815 1.2902776 -0.79509073
000160 de 22 da bf 14 8a 14 bf c1 2d d2 3f 94 79 1e bf
       -1.7041891 -0.5802319 1.6420213 -0.61904263
000170 cb 55 95 bf d1 4a e5 be 7c db af 3e 72 fc 13 c0
       -1.1666807 -0.44783643 0.3434714 -2.312283

corr_bb_l2.bias f4 [32]
000000 12 7b e4 be 44 81 04 3f fb ca 7e bf cc 51 31 bf
       -0.44625145 0.51759744 -0.99528474 -0.6926544
000010 52 f4 f0 be d8 77 a2 bf 1b ff ba be ac 44 de be
       -0.47061402 -1.2692823 -0.36522755 -0.43411767
000020 e5 f2 26 bf c4 7b 72 bf 11 2c 5e bf 51 f4 79 bf
       -0.6521438 -0.947201 -0.8678599 -0.9763842
000030 19 c7 01 bf 9e 2e 11 be 49 ea 51 bf 1e cd 14 bf
       -0.50694424 -0.1417794 -0.81998116 -0.58125484
000040 65 c9 07 3d 45 20 8b bf 38 7e 9a be d4 7f 75 bd
       0.03315105 -1.0869223 -0.30174422 -0.05993636
000050 df ea 2b bf 14 b8 1b bf c4 4f 8a bf 4d 07 11 bf
       -0.6715526 -0.60827756 -1.0805593 -0.56651765
000060 11 48 eb be 8b 26 08 3f 86 5f 12 be 7a 4a 74 be
       -0.4595342 0.5318381 -0.14294252 -0.23856536
000070 eb b4 96 be fe 4e 16 be 86 1f 86 3e 83 9a 22 bf
       -0.29434904 -0.1467857 0.26195925 -0.63517016

corr_bb_l3.weight f4 [32, 32]
000000 ea 08 3c 3e 15 08 9d bd 35 9d 47 be 50 13 8c bd
       0.18362775 -0.07667557 -0.19493563 -0.06839621
000010 e4 9a 3a bd d2 b4 bf 3c 56 62 d0 3c 1d e5 70 bc
       -0.04555787 0.023401652 0.025437515 -0.014703062
000020 f5 59 80 bd f5 1c 8e 3d 2a 50 90 bb 9d f7 9d bc
       -0.06267158 0.06939117 -0.0044040876 -0.01928311
000030 25 1d 70 3d 93 52 13 bd b6 17 82 bd 1b e8 fa 3d
       0.058621544 -0.03596742 -0.06352179 0.12251302
000040 c2 55 13 bd 0a 13 c3 bd e3 dc 04 be 34 bf c9 bd
       -0.035970457 -0.09525116 -0.12974887 -0.09850922
000050 bb 16 a5 bc 47 c7 f1 bd 36 e6 41 3a f5 07 a2 bc
       -0.02015244 -0.11805587 0.000739667 -0.019779185
000060 d4 3a 13 bd 31 81 55 bd 4e d1 2e 3e 78 3a 2a be
       -0.035944775 -0.05212516 0.17072031 -0.16623867
000070 cd 70 0e be 84 0d 8b bc 35 d5 11 3e a6 bc db bd
       -0.13910218 -0.016974218 0.14241488 -0.10729341
000080 3b 95 d4 3e 98 c7 3f 3e fd 90 3b 3e b8 b1 36 3e
       0.41520104 0.18728483 0.18317027 0.17841232
000090 0b 79 4e bc e6 ba b1 be cd 98 3e be 84 17 68 3e
       -0.012602101 -0.34712905 -0.18612976 0.2266522
0000a0 3d 61 34 be 48 12 7d be 70 c9 1c be c7 51 25 3e
       -0.17615218 -0.24714005 -0.15311217 0.16144477
0000b0 2d b9 8f 3d 2d a6 7c 3c df 8f da bd 26 c0 a3 3e
       0.07017741 0.015420479 -0.106719725 0.31982535
0000c0 75 b4 70 be e3 73 a3 be f1 8c 6e 3d b4 d0 a8 3d
       -0.23506339 -0.31924352 0.05823988 0.08242932
0000d0 cb 01 5b be 92 4b 87 be a6 d2 34 be 49 3e 61 3e
       -0.21387403 -0.26424843 -0.17658481 0.21996416
0000e0 1c 72 ae be 7f 82 6d be 67 71 7f 3d 79 42 47 bd
       -0.34071434 -0.23194312 0.06236401 -0.048647378
0000f0 cf df a4 3d eb 0d d8 be 5c 67 15 3e 0a b8 53 b9
       0.080505006 -0.4219812 0.1459021 -0.00020191088
000100 d0 d7 9f 3e 9f f1 63 3d ed 20 4c 3d 35 c2 ba 3d
       0.3121934 0.05565035 0.049836088 0.09119073
000110 5e 99 ba bd ad 42 bb be 7a cb 4e bc ca 59 4e be
       -0.09111284 -0.36574307 -0.012621755 -0.2015144
000120 9c 6f 2d 3d 2a a1 bf 3e 63 8d 3c be 04 37 e2 3e
       0.042342767 0.37427646 -0.1841331 0.441826
000130 4b dd b9 be 16 0f b7 3e d3 7e df 3d 1c b1 14 3e
       -0.36301646 0.35753697 0.10912862 0.14520687
000140 11 33 21 be af fb 04 bd 2a 52 55 3d 1e 4f 12 bf
       -0.15742137 -0.032466587 0.05208031 -0.57151973
000150 ea 66 b6 be 83 59 b2 3d 90 4e bb 3e 1a 3a fc bc
       -0.35625392 0.08708479 0.36583376 -0.030789424
000160 72 66 66 be 01 55 6a be d9 08 9b bd c1 e0 8c be
       -0.22500017 -0.22883989 -0.07570047 -0.27515224
000170 b0 2c e4 bd 39 c9 8a bc fb d6 40 3e a4 54 0f 3e
       -0.11141336 -0.016941654 0.18832009 0.13997132
000180 4a 12 03 3f 5f f0 65 3e eb fe 70 3e b2 5d 86 be
       0.5119978 0.22454976 0.23534743 -0.2624336
000190 2c f1 c2 3e 91 37 f1 3e 7c 86 31 3d 5a 13 76 3e
       0.38074625 0.47112706 0.043341145 0.2403082
0001a0 91 d4 0c 3f 88 16 6f be a6 d5 00 bd 44 08 14 be
       0.5501185 -0.23348439 -0.03145375 -0.14456278
0001b0 91 e5 8c 3e 56 c1 1c be 49 ab a6 be a3 97 a0 bd
       0.27518895 -0.15308127 -0.32552555 -0.078414224
0001c0 08 16 9e 3b c3 c6 03 3d 09 24 09 3e e7 05 25 3e
       0.0048244037 0.032171976 0.13392653 0.16115533
0001d0 9b ad cc 3d b4 40 12 bf 8f 82 89 bd f2 2e b5 be
       0.0999405 -0.5712998 -0.06714355 -0.3538738
0001e0 17 92 bc 3e 40 74 0c be 62 50 58 3e 30 22 9e bd
       0.36830208 -0.13716221 0.21124414 -0.077213645
0001f0 af 84 16 be 14 2d 37 bd 12 49 63 bd 8f 5c 0c 3d
       -0.14699052 -0.044720724 -0.055489607 0.03426796
000200 02 8a a5 be 1f 24 26 bd 7b b2 45 be e1 66 50 bd
       -0.32331854 -0.04056179 -0.19306366 -0.050879363
000210 3b a5 8a 3e 69 e8 12 bf 27 74 58 3e 2f 72 79 3e
       0.27079186 -0.5738588 0.21138059 0.24359964
000220 ec 59 f2 3d a0 37 69 be ab d9 71 be 9b e1 fa be
       0.118335575 -0.22775126 -0.2361819 -0.49000248
000230 0e a9 ab 3d f0 21 b8 be d9 76 84 bd 0e 75 b0 be
       0.08381854 -0.35963392 -0.06467981 -0.34464306
000240 26 ed e0 3d ab e5 94 bd a6 85 b0 be 35 4b 3d 3f
       0.109827325 -0.07270368 -0.34476966 0.7394288
000250 91 26 c2 3e fb 20 d8 3b d8 36 c4 be 09 58 b4 bd
       0.3792005 0.0065957285 -0.38323092 -0.08805854
000260 26 55 96 be 2b f4 4d 3e ca fd 93 3d 60 68 8d 3e
       -0.29361838 0.20112674 0.07226141 0.27618694
000270 86 39 1f bd 7e e1 0a be e4 b6 0d be 34 b8 2c be
       -0.038873218 -0.13562581 -0.13839298 -0.16867143
000280 63 df 68 3e c2 a8 9f 3e 7b 83 6e 3e ab 74 a1 3e
       0.22741465 0.3118344 0.23292343 0.31534323
000290 a0 6c b2 be 4b bf f8 3e 0c 62 67 be 8f a6 30 bd
       -0.348485 0.48583445 -0.22595996 -0.043127593
0002a0 95 22 e5 bd 94 61 a7 3e 6c ac 0b 3e 0c 0d f1 3d
       -0.111882366 0.32691634 0.13639992 0.117700666
0002b0 d5 b9 86 be c2 bc e8 3e bd ee 08 be f6 16 0d bd
       -0.26313654 0.4545651 -0.13372321 -0.034445725
0002c0 25 78 41 bd 1d fd 9e bd f4 dc df 3e e2 8e ce be
       -0.04723372 -0.07763121 0.4372326 -0.40343386
0002d0 d1 2c a6 be e0 f9 2a bd 69 66 8b 3d 66 b1 08 3e
       -0.32456067 -0.041742206 0.068066426 0.13348922
0002e0 af 8e 5d be 10 74 96 be 65 4b c0 bd b6 4b d2 be
       -0.2163646 -0.29385424 -0.0938938 -0.41073388
0002f0 05 e8 6f bd ae d4 20 be 81 f3 91 3e 50 18 52 bd
       -0.05857088 -0.15706131 0.2850609 -0.051292717
000300 73 67 33 3e 56 60 6c 3e b0 c0 88 bd 39 ce 0c 3e
       0.17519931 0.23083624 -0.06677377 0.13750543
000310 4b fb 6c bd 4b 68 19 3d 5a fb 84 3c 6d ef 29 3d
       -0.05785684 0.037452977 0.016233135 0.0414881
000320 91 8f 9f ba ea ea 35 3c 5d ec 49 3c 46 01 f0 bd
       -0.0012173523 0.011103371 0.01232442 -0.11718993
000330 ae aa 8d bc 2f 2f 96 bd 52 5e a3 bd 44 25 1c be
       -0.0172933 -0.07333218 -0.079769745 -0.1524859
000340 d1 c8 46 be 93 96 73 3d f8 80 9f bc 59 f4 be bc
       -0.19412543 0.05946977 -0.019470677 -0.023309873
000350 20 0e e3 bc f6 8c ac 3d c6 e8 a8 bc 8c d9 2c bd
       -0.027716696 0.08425324 -0.020618808 -0.042199656
000360 ab 8d 61 be 48 05 be bc 12 33 80 bd 7a cc 5d be
       -0.22026698 -0.023195878 -0.06259741 -0.21660033
000370 59 40 20 3d e2 f9 10 3d 2c e3 a1 bd 94 01 a0 3d
       0.039123867 0.035394557 -0.07904658 0.07812801
000380 05 04 88 3d 11 d4 a5 3d fc ec 23 bd 2c 99 06 bc
       0.06641392 0.08097089 -0.040020928 -0.00821523
000390 1a c9 12 3e 77 85 f9 3d a7 03 02 3d 19 cc ee 3c
       0.14334527 0.121836595 0.031741764 0.029150056
0003a0 13 1d 71 bd f3 4a fc 3d a7 39 23 bd f8 8e 5c 3d
       -0.058865618 0.12318983 -0.039849903 0.053847283
0003b0 2b 85 04 3d c8 64 b3 bd d1 69 59 3d 15 9e c6 3d
       0.03235356 -0.08759457 0.05307943 0.096981205
0003c0 5c a5 ef 3c bc 67 df bd b0 0a 3a bd 87 69 3e bd
       0.029253654 -0.10908458 -0.04542035 -0.046487357
0003d0 2d 18 7b 3c 88 f3 64 bd bc 56 08 3d 88 0a 51 3d
       0.015325588 -0.055896312 0.03328584 0.051035434
0003e0 7a 2e 41 bd e4 cf 26 be c9 5e 84 3d 86 59 3c 3d
       -0.047163464 -0.16290241 0.06463391 0.045983814
0003f0 96 c9 16 bd 5b bd 20 bc 54 15 ca bd c1 66 53 3d
       -0.03681334 -0.009810771 -0.09867349 0.051611666

corr_bb_l3.bias f4 [32]
000000 d3 b8 a7 bc 50 1a aa 3d 92 35 c4 bc 63 23 5a 3d
       -0.020473873 0.083058 -0.023951326 0.053256404
000010 c4 8d af be 26 7e 60 3e 7e 46 28 bc a7 00 96 3b
       -0.34287846 0.21923122 -0.010270713 0.0045777145
000020 52 3a 4b be 72 8f fc 3a f6 15 ef bd 4d 59 96 bd
       -0.19846466 0.0019268824 -0.116741106 -0.073412515
000030 6f 82 3d bd 06 2f d0 3d 8d 69 2e be 91 f7 fb 3d
       -0.04626697 0.10165219 -0.17032452 0.12303079
000040 cb ed c5 3b c5 54 0b 3e f7 1f 6d 3e eb 71 91 bc
       0.00604031 0.13606556 0.23156725 -0.017754516
000050 38 d9 e5 3d 39 07 28 bb b5 ec 48 3d 86 29 22 3e
       0.11223072 -0.002563907 0.049053866 0.15836152
000060 4e a2 4d bc 10 37 13 be c7 ae 7c be 6c 4f 6c be
       -0.0125509035 -0.14376473 -0.24676047 -0.23077172
000070 9c 65 a2 3d 81 fe d2 3d 0d fc 92 3d 3a cb 1d be
       0.07929537 0.10302449 0.07176981 -0.15409556

corr_bb_l4.weight f4 [32, 32]
000000 d6 ee d9 3f cd d6 97 3f 53 47 0d 40 ef b8 c7 bf
       1.7026012 1.1862427 2.2074783 -1.5603312
000010 83 26 7b 3f 21 a8 d9 3e 36 07 c1 3f 37 e5 d2 bf
       0.9810564 0.42511085 1.5080326 -1.6476201
000020 f8 7e 92 3f 51 48 f4 be 2a 47 5a 3f 40 69 b7 bf
       1.1444998 -0.47711423 0.8526484 -1.4328995
000030 e5 27 dd 3f a6 a1 04 40 67 83 19 c0 6c 8b ec 3f
       1.72778 2.0723662 -2.3986452 1.8480048
000040 c7 70 d8 bf cc 5e e7 bf 93 58 ca 3f ba 61 2b bf
       -1.6909417 -1.8075805 1.5808281 -0.66945994
000050 d7 27 b5 bf ef 06 7c bf d7 e3 ea bf 7b e9 8d bf
       -1.4152783 -0.9844808 -1.8350781 -1.1086878
000060 bb 2e b0 3f af 4d 8a bf ac 99 ec 3f 99 69 19 bf
       1.3764261 -1.0804957 1.8484397 -0.59926754
000070 64 6d 15 40 79 f5 38 3f d9 9f 02 bf 6a 5a 09 40
       2.3348017 0.7224956 -0.5102516 2.1461434
000080 3c b3 19 3f 9c e1 21 3e 74 34 73 3e 36 78 8d bd
       0.60039115 0.1580872 0.23750478 -0.06907694
000090 3d 1a 5e 3e 0b 22 eb be 5b 69 3f 3e 38 31 f2 3e
       0.21689697 -0.4592441 0.18692534 0.47303176
0000a0 d9 7d 5f 3e 7a 0f 49 bf d0 78 39 bd 2b e6 2d bd
       0.21825351 -0.7853924 -0.04528123 -0.042455833
0000b0 b7 c0 d2 3e dd 4c 2b 3e 04 3b 17 bf 86 b2 bb 3e
       0.41162655 0.1672854 -0.59074426 0.3665964
0000c0 15 29 de be 13 f6 40 be 65 ec 97 3e b3 9d 6f 3d
       -0.43390718 -0.1884387 0.29672542 0.058500003
0000d0 f7 4b db be 2a 41 a3 be 16 47 12 bf 01 94 27 be
       -0.42831394 -0.31885654 -0.5713972 -0.16365053
0000e0 5e 75 4e 3f 59 bc 67 be 26 4b f3 3c 21 18 29 be
       0.8064784 -0.22630443 0.02969892 -0.1651311
0000f0 e1 18 61 be 2a 37 40 bf 60 39 50 be e1 4b 41 3f
       -0.21982147 -0.75084174 -0.20334387 0.7550641
000100 cb 87 ba bd b2 1a 5e 3e 0c 80 92 bd 99 d1 4c be
       -0.09107932 0.21689871 -0.07153329 -0.2000183
000110 28 5a 0b 3f 87 e2 b0 3f fd 81 49 3f 1a 96 11 be
       0.5443444 1.3819131 0.7871397 -0.14217415
000120 92 20 f3 bc 92 9e dd be fa 3f 87 be 76 9b bf 3e
       -0.029678617 -0.43285042 -0.26415998 0.37423295
000130 e1 5a f6 3e c1 02 7b 3e 08 75 98 bc 4c 68 62 3e
       0.4811621 0.2451277 -0.018610492 0.22110099
000140 f4 7f 39 be bd c2 a3 bd e4 5f 9c 3e 82 5e e4 3e
       -0.18115216 -0.07996128 0.3054191 0.44603354
000150 37 d8 69 be 45 55 78 be 28 36 9e be e1 e1 58 bf
       -0.22836386 -0.24251278 -0.30900693 -0.84719664
000160 49 0f 3c 3f f2 89 f2 3b c8 4d 02 3f 7d be 2f 3e
       0.73460823 0.0074016983 0.50899935 0.1716251
000170 d9 94 9a 3e 93 72 f1 3e b1 63 02 bf 9c ac 2c 3f
       0.30191687 0.47157726 -0.50933367 0.6745088
000180 56 94 b0 3f aa dd 9d 3e 1e 75 98 3f d5 ea 90 be
       1.3795269 0.3083318 1.1910741 -0.28304163
000190 db de 0f 3f 97 88 0d bd b0 73 bf 3e 0f 0b 62 3f
       0.56199425 -0.03455409 0.3739295 0.88298124
0001a0 e2 e0 c0 3e dc 34 29 bf 9c 9e cc 3e 12 94 04 bf
       0.37671572 -0.6609628 0.3996476 -0.5178844
0001b0 70 be d3 3c ab 37 95 3d bc c1 4b bf 3a 11 06 3d
       0.025847644 0.072860084 -0.7959249 0.032731272
0001c0 c0 6f b2 be 34 c8 10 bf 42 98 0d 3d c0 44 3b 3e
       -0.34850883 -0.56555486 0.034569032 0.18287945
0001d0 dd fb 3c bf 8a bb eb bf 0b 70 54 bf 4e 91 14 bf
       -0.7382181 -1.8416607 -0.82983464 -0.5803422
0001e0 e4 8d 6b 3e cb 4a 69 be 95 14 48 bd 84 c0 9b be
       0.23003346 -0.22782438 -0.048847754 -0.30420315
0001f0 3e ec 34 be 8f 9e 5c be e9 e2 bf bd c1 1b 2c 3d
       -0.17668244 -0.2154486 -0.093694516 0.042018656
000200 0e 45 2c 3f 8f 10 cf 3e 72 45 ea 3e 23 20 bb 3e
       0.6729287 0.4044232 0.45756108 0.36547956
000210 79 39 e8 be 5d 3d d1 be d4 15 67 3f f9 46 50 bf
       -0.45356348 -0.4086713 0.9026768 -0.81358296
000220 bd 4f 59 bf 6a 50 23 bf 31 50 23 3f d8 72 a1 3e
       -0.84887296 -0.6379458 0.6379424 0.3153293
000230 7b 01 1d bc 94 74 04 3f 39 3b 84 be 88 54 cd 3f
       -0.0095828725 0.51740384 -0.25826433 1.6041422
000240 fb 37 af bf 76 fc 17 be 02 e8 42 3f 85 cc aa 3e
       -1.3688959 -0.148424 0.76135266 0.3335916
000250 1b 4b 6e bf 1e c8 34 3e 28 5b 42 be 27 7a 47 3f
       -0.9308335 0.17654464 -0.18980086 0.77920765
000260 24 2f b4 3f 03 9d bd be f0 ee a6 3e b6 b8 b8 be
       1.4076886 -0.37033853 0.3260417 -0.36078423
000270 da 8e d3 3e 80 73 0e bf 0d f3 87 3e 82 99 b7 3f
       0.41319925 -0.5564499 0.2655262 1.4343722
000280 fa 51 27 3f 2a 77 16 bd ea 99 df bc 7b 66 52 be
       0.6535946 -0.036734737 -0.027295072 -0.20546906
000290 ff 07 b0 3e d7 2f 37 3e 9b 75 58 3f c7 46 b5 3c
       0.343811 0.17889343 0.8455445 0.022128476
0002a0 92 39 be 3e b5 cb 98 3d 31 2f 96 3e 6c 6d 39 3e
       0.37153298 0.07460729 0.2933288 0.18108147
0002b0 0f 32 63 3f 6a 64 23 3e 44 b2 c1 bd a1 95 f7 3d
       0.8874826 0.15956274 -0.094578296 0.12089086
0002c0 5f 69 10 be 46 08 94 3f 7b 19 cf 3e 0e c1 bc be
       -0.14102696 1.1565025 0.40449128 -0.3686604
0002d0 ef e4 7f 3e 11 e2 dd 3e 67 7c de be 46 f2 a9 be
       0.24989675 0.43336537 -0.43454286 -0.33192652
0002e0 73 06 d7 3e 62 bc 07 bd 9d 4f 9f 3d 84 3a 7d be
       0.41997108 -0.03313864 0.07778857 -0.24729353
0002f0 d0 e3 cf bd 16 d0 d4 be 3e 7d 4c 3e 46 4b e9 3e
       -0.10150874 -0.41565007 0.19969651 0.45565242
000300 40 03 fe 3f 8e 28 8e 3f 5a 90 12 40 e4 ae de bf
       1.9844742 1.1106126 2.2900605 -1.7397122
000310 58 d3 8d 3f 77 a5 e8 3d 5b ea f0 3f c3 a1 e6 bf
       1.1080122 0.11359685 1.882152 -1.8018116
000320 21 85 d7 3f 48 8b 08 bf bb da 5e 3f cf 62 c8 bf
       1.6837503 -0.53337526 0.87052506 -1.5655154
000330 9a 1c e7 3f 1d dd 1e 40 6b 51 2d c0 4b 1f 18 40
       1.8055604 2.4822457 -2.7080944 2.37691
000340 a7 ba f6 bf 84 c0 dc bf 5b aa de 3f 72 d4 89 be
       -1.9275712 -1.7246251 1.7395738 -0.26919895
000350 19 5f b4 bf dd 0a b8 bf 11 d7 ef bf d3 05 b3 bf
       -1.4091522 -1.4378315 -1.8737508 -1.3986152
000360 ab 86 c3 3f bd 25 9f bf e2 a0 fd 3f 6c 6f 34 bf
       1.5275472 -1.2433392 1.9814723 -0.70482516
000370 4e b5 23 40 1f 8d 76 3f e5 cc 7e be 65 b0 2e 40
       2.557941 0.96309084 -0.24882849 2.7295163
000380 df 56 02 40 98 8d 95 3f 35 dd 1c 40 76 ef f9 bf
       2.0365522 1.1683836 2.4510014 -1.9526203
000390 0e 2d 96 3f 60 34 cd 3e f9 11 f7 3f 14 3e 00 c0
       1.17325 0.4007902 1.930236 -2.003789
0003a0 e4 87 f6 3f 8e ce 08 bf 03 0f 46 3f b3 4e dc bf
       1.926022 -0.5344018 0.77366656 -1.7211517
0003b0 90 1e 02 40 3e 99 34 40 d9 7e 1c c0 27 a6 15 40
       2.0331154 2.8218532 -2.4452422 2.3382661
0003c0 a2 33 ba bf 3e 9e eb bf 84 88 05 40 5d b7 8c be
       -1.4547007 -1.8407667 2.0864573 -0.27483645
0003d0 21 d3 d4 bf 3a 85 d2 bf 74 e7 d6 bf cd b8 8b bf
       -1.6626931 -1.6446908 -1.6789384 -1.0915772
0003e0 dc 58 ce 3f 2d 2c 93 bf 84 c0 0e 40 df 21 6b bf
       1.6120868 -1.1497856 2.2305002 -0.9184856
0003f0 17 5b 49 40 c6 0e 72 3f 55 50 04 bf 77 23 47 40
       3.1461847 0.9455379 -0.51685077 3.1115396

corr_bb_l4.bias f4 [32]
000000 e3 36 eb 3f 21 af 0c 3f f0 26 d5 3e 07 9f b2 3e
       1.8376125 0.54954726 0.4163127 0.34886953
000010 41 d4 9b 3e bf c7 d8 3d a3 73 e8 3f a6 7d 02 40
       0.30435374 0.105849735 1.816029 2.038919
000020 6b 52 06 40 7b 80 e1 3f de bd ec 3f c2 28 e1 3f
       2.0987804 1.7617334 1.8495443 1.7590563
000030 65 98 dc 3f a9 91 1a 3e a7 65 05 40 33 3b 02 40
       1.7234007 0.15094627 2.0843294 2.0348632
000040 71 d7 af 3e c1 4b ed 3f d8 09 1f 3f 83 7f fd 3f
       0.34344056 1.8538743 0.62124395 1.9804538
000050 d0 e8 e8 3f bf e6 d8 3f d0 3a ea 3f 84 e8 c8 3e
       1.8196049 1.6945418 1.8299198 0.39239895
000060 3b 0f af 3d 01 fd 50 3d 2b bc 81 3e e4 32 aa 3e
       0.08547827 0.051022533 0.25338873 0.3324195
000070 52 53 ca 3e 01 be 52 3e 6b 41 16 3e 60 39 20 3f
       0.39516693 0.20580293 0.14673392 0.6258755

corr_bb_out.weight f4 [1, 32]
000000 a5 4f 90 ba b9 e5 a2 3d 3f 0b 54 be ed 24 a1 3d
       -0.0011010064 0.07953972 -0.20707415 0.07868371
000010 6c 8f c2 3d f1 05 18 be c7 de b1 ba ba 0c 80 bb
       0.09500012 -0.14846016 -0.0013570421 -0.003907767
000020 32 d8 6f 3a 74 fc 6e bb 28 8a 0e 3b b6 32 0e 3b
       0.0009149342 -0.0036466392 0.0021749828 0.0021697707
000030 e5 64 21 bb 54 80 82 bd 11 6a f7 ba ca 45 00 39
       -0.0024626788 -0.06372133 -0.0018876215 0.0001223303
000040 47 6d ae 3d 2f 97 f6 39 76 da 8a bd 29 71 1b 3a
       0.08516937 0.00047033417 -0.06779949 0.0005929643
000050 f9 c9 f1 b9 d8 e2 a6 ba b9 56 c9 ba 2f b0 d8 bd
       -0.00046117583 -0.00127324 -0.0015360928 -0.10580479
000060 7e 45 51 3d af 33 5e bd 0c 2a ab 3d 34 29 f6 3c
       0.051091664 -0.054248508 0.08357629 0.030048944
000070 83 47 c7 3d bc 2c 02 3e 60 07 e8 bd ef 38 2f 3d
       0.09730437 0.12712377 -0.11329532 0.042778905

corr_gg_l1.weight f4 [32, 6]
000000 b8 3c 43 c0 f7 44 1d 3f 50 41 09 bf 25 9d 89 bf
       -3.050581 0.61433357 -0.53615284 -1.0751082
000010 f1 4a 3e 3f 9c e3 8a bf 46 05 be bd fc ff 40 bf
       0.743331 -1.0850711 -0.092783496 -0.753906
000020 4a a0 28 c0 2b f7 86 bf b1 e0 9a 3f c1 7e fb be
       -2.6347833 -1.054418 1.209982 -0.49120143
000030 e6 8d 7c bf 58 b5 45 bf 32 cb 55 bf ca 46 56 be
       -0.9865402 -0.77229834 -0.83513176 -0.20925441
000040 2f 2a ac bc 29 68 f9 be 51 1e 25 3f e5 d9 97 3f
       -0.021016208 -0.4871228 0.64499384 1.1863371
000050 6c 59 14 bf b5 39 fa 3e 75 0a 97 3d fd 32 1a 40
       -0.57948947 0.48872152 0.073750414 2.409362
000060 77 65 11 3d de 89 02 3e 05 5f 54 c0 a4 1c 8d bf
       0.035497155 0.12747905 -3.3182995 -1.1024365
000070 9b 7b 9a c0 7c 0b 22 3e 2f e8 29 bf 44 7b b0 be
       -4.8275886 0.15824693 -0.6636991 -0.34469044
000080 fe 36 b7 bf b3 bd 8d 3f b3 f5 d5 bf b5 85 ae bf
       -1.4313657 1.1073517 -1.6715606 -1.3634554
000090 91 a5 6b 3f 82 e5 3d 3f 19 c4 c4 3f 00 32 6b bf
       0.9204951 0.74178326 1.5372344 -0.9187317
0000a0 e2 52 e7 3e 4f 4a 38 3f c9 ff 5d be ce ad 36 bf
       0.45180422 0.71988386 -0.21679606 -0.71358955
0000b0 34 52 59 40 7d dd f0 3f c7 f0 e2 be c0 3d 2d bf
       3.3956423 1.8817593 -0.44324324 -0.6767235
0000c0 c3 65 4b bf 6a 65 5e bf c1 2a 23 3f fc 21 e8 3e
       -0.7945215 -0.86873496 0.6373711 0.45338428
0000d0 37 b7 8f be e4 28 8f bf 4f 7e 7a 3d 31 5f 9a 3d
       -0.2806947 -1.1184354 0.061155614 0.075376876
0000e0 25 57 15 c1 7a 22 df be 1e 36 2b bf 25 4f 9a 3d
       -9.3337755 -0.4358099 -0.6687945 0.07534627
0000f0 4a 55 69 c0 3e 69 1b 40 90 6d ff bd d7 bd 19 bf
       -3.6458306 2.4282985 -0.12472069 -0.600553
000100 17 42 68 be 52 99 46 bf 09 e9 1e bf 62 34 81 be
       -0.22681461 -0.775777 -0.62074333 -0.25235277
000110 d1 c2 9a 3f 22 67 63 40 bb 7c 41 40 0c c1 3f bf
       1.2090703 3.5531697 3.023238 -0.7490394
000120 4e 59 cf be 05 8a 86 bf 58 fd ed 3f d5 36 20 40
       -0.40497822 -1.051087 1.8592939 2.5033467
000130 59 3b 3f 3e b7 9d f4 bd 5f d7 c4 bd 86 d5 ce 3f
       0.18674983 -0.11944144 -0.09611391 1.6158912
000140 c2 63 e7 be 61 a9 06 c0 93 8c 81 3f e6 c9 d9 3f
       -0.45193297 -2.104088 1.0121025 1.701474
000150 39 5f 1f be f7 15 76 be 96 b4 62 40 a0 0a 99 bf
       -0.15563668 -0.24031816 3.542272 -1.1956367
000160 46 50 1e c0 96 aa cb be 31 93 b3 bd 5e d2 28 be
       -2.4736495 -0.39778584 -0.08768309 -0.16486499
000170 2c 66 99 c0 20 82 ef bf ce f5 6b 40 b8 fd 44 be
       -4.793722 -1.8711586 3.6868777 -0.19237411
000180 d6 c3 5d be 17 c0 8f be ea 70 14 c0 7f 6e 80 40
       -0.21656737 -0.2807624 -2.3193917 4.0134883
000190 18 97 31 c0 02 a2 ee be 3c 96 cb 3e f8 cc a7 be
       -2.774847 -0.46607977 0.39763057 -0.32773566
0001a0 90 a4 33 40 58 96 25 3e 2a 65 2d bf 49 b3 1e 3f
       2.806919 0.16170633 -0.6773249 0.6199232
0001b0 3a 26 8c bf c5 d2 d1 be c8 db 3d c0 27 2a 89 bf
       -1.0949166 -0.40981117 -2.9665394 -1.0715989
0001c0 6a 00 bc 3d 2d 20 f2 be 89 60 06 3e 08 3a 2d 3f
       0.091797665 -0.47290173 0.13122763 0.67666674
0001d0 74 f3 09 40 60 2f 9c 3f 2d 22 3b 40 bc fa 51 3d
       2.1554842 1.2201958 2.923961 0.05126451
0001e0 48 12 e4 bf a3 8f 00 40 00 5f 20 bd 6c a7 a8 3e
       -1.7818079 2.008767 -0.0391531 0.32940233
0001f0 4d eb 21 3f 6f 4c 02 bf 76 bf 17 bf 8e 3b fe be
       0.63249665 -0.5089788 -0.5927652 -0.49654812
000200 da 41 00 c0 9e 02 28 3f 08 69 7f be 1b ad 7b be
       -2.0040193 0.65628994 -0.2494241 -0.24577753
000210 36 16 ab 3e 8e 27 25 c0 f9 c0 06 c0 7a fb 2b 3e
       0.33415383 -2.5805392 -2.105528 0.1679515
000220 86 04 ab 3f ba 99 8a be 62 5a 52 3f 94 8b aa bf
       1.3360755 -0.2707041 0.82169163 -1.3323846
000230 f5 a6 b9 bf c3 7c 16 c0 6e e3 ce bf b6 ee 95 3f
       -1.4504076 -2.3513649 -1.6163156 1.1713474
000240 cb d1 7f bd cd 1a bf bc c0 64 0a bf f0 1d 92 c0
       -0.062455934 -0.02332821 -0.5405998 -4.5661545
000250 46 62 05 c0 9c c1 53 3d 66 6d c1 3d 51 4b a3 be
       -2.0841231 0.051698312 0.09444694 -0.318934
000260 ea 2c df bf 59 c5 67 c0 5f f3 f8 bf 9f 02 0f be
       -1.7435582 -3.6214201 -1.9449271 -0.13965844
000270 52 8f 90 bd fe ac 50 be 4c 9c 82 3f f4 ba aa c0
       -0.07058586 -0.20378491 1.0203948 -5.3353214
000280 1d c2 55 c0 df 6c 6b be cc c2 bf 3e ac a1 2f bd
       -3.3399727 -0.2299075 0.37453306 -0.04287879
000290 df 50 5f 40 f7 6d 03 c0 49 00 c2 bf 53 b0 76 3c
       3.489311 -2.0535867 -1.5156337 0.015056687
0002a0 98 d2 10 be 03 29 39 be 38 90 27 3f 54 c6 29 c0
       -0.14142835 -0.18082051 0.65454435 -2.65273
0002b0 df e9 b0 40 45 67 94 be 3a e0 e0 bd 25 35 a5 bd
       5.5285487 -0.28985038 -0.10980268 -0.08066777
0002c0 91 ea ca 3f 90 05 aa 3f 60 0a b1 c0 57 b1 04 be
       1.5852834 1.3282948 -5.5325165 -0.12958275
0002d0 da 60 49 3e a5 a9 8f bc d1 58 02 c1 81 3e 67 bf
       0.19665852 -0.017536948 -8.146684 -0.9032975
0002e0 56 2e 05 3f 24 78 ef 3c eb 7b a4 be 20 36 a7 be
       0.5202383 0.029232092 -0.32125792 -0.32658482
0002f0 80 5f a5 40 11 1a f4 be 42 71 62 be 89 96 0a be
       5.1679077 -0.47676137 -0.22113517 -0.13533987

corr_gg_l1.bias f4 [32]
000000 df 78 f5 bd 0e 8f d6 3c e8 e7 4f 3e 00 61 a2 bb
       -0.11985945 0.02619126 0.20303309 -0.004955411
000010 42 c4 cc bb 84 27 10 bc 4d ec c3 bd ce d3 0d 3d
       -0.0062489817 -0.008798484 -0.09566555 0.03462582
000020 e4 f5 9c 3d 87 33 13 bc 6a e3 bc bc db 79 1a 3d
       0.076640874 -0.008984453 -0.023057658 0.037713867
000030 a1 bc 27 3e 27 63 20 3d bd 3f f4 3b b1 f1 9d 3b
       0.1638055 0.03915706 0.0074538873 0.0048200716
000040 56 7c 17 3c 18 2f 48 bc 56 61 c0 3c ea d2 1d bd
       0.009245953 -0.012218259 0.023483913 -0.03853122
000050 9e 5d 12 bd ae 82 9a 3e c1 17 38 3d b1 04 16 3e
       -0.03573381 0.30177826 0.04494453 0.14650227
000060 51 a2 20 3b 54 92 bc 3c c7 fc 5e 3c c2 32 dc 3b
       0.002451081 0.023018993 0.0136100715 0.006719918
000070 37 7e 32 3c 19 ce 0e 3b c5 80 51 bc aa fd 0f 3e
       0.01089435 0.0021790324 -0.012787049 0.14061609

corr_gg_l2.weight f4 [32, 6]
000000 bd b8 9d 3f 21 c8 dd bf 4e 34 8f be 21 ad 05 c0
       1.2322003 -1.73267 -0.27969593 -2.088692
000010 37 77 25 3e f8 07 e1 bf c3 f1 e0 3e fa dc 3a be
       0.16158758 -1.7580557 0.4393445 -0.18248358
000020 72 98 d2 be fe 6d 08 c0 ae 3c 11 40 fd cb 58 bf
       -0.41131932 -2.1317134 2.2693286 -0.8468626
000030 c4 f6 fc bf d5 c7 1c c0 6f 9e 57 3f be f7 f3 bf
       -1.9762807 -2.4496968 0.84226125 -1.905998
000040 b9 a6 0b be 85 ee 9b 3f dc 4c 36 3e fc 1f 58 3f
       -0.13637818 1.2182165 0.17802757 0.84423804
000050 bf a6 37 3e 80 b3 43 3f f3 2d e6 bf 42 9e 1e be
       0.17934702 0.7644577 -1.7982773 -0.15490058
000060 da cb 22 3f 4a 1d d7 3f 43 9a ea 3f 4b 13 5b 40
       0.635923 1.6805813 1.8328327 3.4230525
000070 b3 19 bf 3f 5a 56 69 3f 38 98 dd bd a2 5f e4 be
       1.4929718 0.9114739 -0.10820049 -0.44604212
000080 4f 08 03 c0 69 0e 86 bf d1 b4 aa bf d9 c6 30 c0
       -2.047382 -1.0473148 -1.3336431 -2.7621367
000090 04 6f 70 bf bf 82 86 bf bf b1 8a bf 74 43 7b bf
       -0.93919396 -1.050865 -1.0835494 -0.981498
0000a0 ce 29 27 c0 c0 8d 66 3e 63 ac 78 3e d6 a1 fc 3f
       -2.6119266 0.22515011 0.2428451 1.9736888
0000b0 e6 f2 47 c0 e4 d8 62 be 0f b0 1a bf 8e 8d 55 3f
       -3.1242003 -0.2215305 -0.60424894 0.8341912
0000c0 e7 7f 72 3e 29 fe 9e 3f 58 cd 60 40 68 0a 22 c0
       0.23681603 1.2421314 3.5125332 -2.5318851
0000d0 39 13 98 be 98 01 39 3f 91 11 7d bf 71 3d 16 bf
       -0.29702166 0.72268057 -0.9885493 -0.586875
0000e0 8a 27 c4 3f 65 70 9a 3f 8b 9d 42 3e e8 c3 13 3f
       1.5324566 1.206555 0.1900541 0.57720804
0000f0 ef 86 9a 41 f4 64 89 3f 82 36 b6 3f c3 57 2c 3f
       19.315886 1.0733933 1.4235384 0.67321414
000100 7f 4d 56 bd af cb 02 c0 45 41 36 3f 13 18 0e bf
       -0.05232 -2.0436819 0.71193343 -0.55505484
000110 ea ca a0 3f e2 24 11 40 25 27 e7 3f ca e4 05 3f
       1.2561924 2.2678761 1.8058821 0.5230223
000120 94 45 c2 bf f1 3b f4 be fa d2 5d 3f c3 7a 3d 40
       -1.5177484 -0.47701982 0.8665005 2.9606178
000130 42 01 80 3e 4f ae 7b 3f d0 2e 9b bf 37 2d f7 3f
       0.2500096 0.9831285 -1.2123661 1.9310673
000140 fb 52 e2 3f 3f 3b b2 bf 8c c3 06 c0 2a 84 10 c0
       1.7681574 -1.392433 -2.1056852 -2.2580667
000150 c0 29 4b bf ec a6 31 be 40 bd 46 40 c8 5c f1 bf
       -0.7936058 -0.17348832 3.105301 -1.885644
000160 c5 e5 3d c0 8c 66 85 bf f6 1a 98 be ee 92 a8 3e
       -2.967149 -1.042192 -0.2970807 0.32924598
000170 66 51 59 c0 d0 d8 94 c0 45 a7 00 40 66 98 89 3f
       -3.3955932 -4.6514664 2.0102093 1.0749633
000180 69 e0 25 3f 19 80 70 3f 11 c2 09 c0 13 75 73 40
       0.6479555 0.9394546 -2.1524699 3.8040206
000190 c4 ee 6f c0 85 1c 8e 3f dc 15 ae bf c9 1b 2f 40
       -3.748948 1.1102453 -1.3600421 2.7360709
0001a0 55 bf 29 c0 52 9b fa be d0 5f 00 c0 ea 03 1f bf
       -2.652303 -0.48946625 -2.005848 -0.6211535
0001b0 4e 53 c4 3e d4 f3 10 bf c8 47 22 40 ab e6 8d 3e
       0.38344806 -0.5662205 2.5356312 0.27715048
0001c0 70 f9 25 3f 84 1e cb 3f 7b 04 e6 bf ac f9 00 3f
       0.64833736 1.5868688 -1.7970117 0.5038097
0001d0 9c 3f 17 bd ba 09 5f 40 b7 9f 15 c0 8f f1 49 3f
       -0.036925897 3.4849687 -2.3378732 0.78884214
0001e0 7c 86 c5 be 1e 7a 63 41 8d db 04 bf aa ff 07 3e
       -0.38579166 14.217314 -0.5189751 0.13281122
0001f0 31 35 b4 bf 41 fd 8b bf db 9c e5 bf 35 73 24 3d
       -1.4078733 -1.0936662 -1.7938493 0.040148932
000200 0d 56 c2 3e e3 55 c3 bf 71 b9 b5 bf f9 0e 4d 40
       0.37956277 -1.5260586 -1.4197217 3.2040389
000210 12 9a a3 bf 0f 2a 10 40 70 3a 2a 40 0d ec 84 3f
       -1.2781394 2.252567 2.6598167 1.0384537
000220 b2 83 9c 3e 18 e3 3c bf f7 22 20 41 1a 14 c9 3e
       0.30569226 -0.7378402 10.008536 0.3927315
000230 91 72 2c c0 34 7b 38 40 6b 38 f6 3f 8f b2 7c bf
       -2.6944926 2.8825197 1.9235967 -0.9870996
000240 25 e4 07 3f db 66 5a 3f 05 66 0a 40 ec b7 62 be
       0.53082496 0.85313195 2.1624768 -0.22140473
000250 ee 6a 61 bf dc 80 7d 3f 0c 5a 6c 3f 94 07 2b 3f
       -0.88053787 0.9902475 0.923249 0.6680844
000260 24 33 f5 3f a8 15 7b 40 68 f3 fd 3f 65 ac 3d 3f
       1.9156232 3.9231968 1.9839907 0.7409118
000270 ba 88 4a 3f a4 ab 96 3f d0 9d cc 3f dc 2f aa c0
       0.7911488 1.177113 1.598566 -5.318342
000280 5a a2 7a c0 7e bf b6 3f d2 85 2d 40 55 17 53 be
       -3.9161592 1.4277189 2.7112927 -0.20614369
000290 72 f3 6d 40 fb b8 a5 bf c7 65 ab bf 24 cd 49 be
       3.7179837 -1.2947077 -1.3390435 -0.19707161
0002a0 ff 4e 84 3f 0e c9 a4 3f 30 8b 87 bf 71 00 52 40
       1.0336608 1.2873857 -1.0589352 3.281277
0002b0 3c 65 76 c0 ee 5a e1 3f d3 cc 66 3f 8e 50 7c 3f
       -3.8499289 1.7605875 0.90156287 0.98560417
0002c0 0e 71 26 c0 fb ec 96 c0 2d c8 88 3f ee 4f 5f 3f
       -2.6006503 -4.7164283 1.0686089 0.8723134
0002d0 ec 9a fc 3e 67 cf b9 bf 6a d7 18 c0 be 0f 17 c0
       0.49336946 -1.4516419 -2.3881478 -2.3603358
0002e0 4f 06 da 3d d1 78 cd bd 76 95 be bf 13 94 45 bf
       0.106457345 -0.100328095 -1.4889362 -0.7717907
0002f0 f4 2d 3a bf 20 39 37 bf aa 49 cf bf a4 ca 1b 40
       -0.7272637 -0.7157154 -1.6194355 2.4342432

corr_gg_l2.bias f4 [32]
000000 43 40 bc bf 85 ef 85 be 10 77 0a bf a1 e7 f1 bf
       -1.4707111 -0.261593 -0.54087925 -1.8898813
000010 09 18 d3 bf d5 66 1a bf fb a9 3d be a2 5c 72 bf
       -1.649171 -0.6031316 -0.18521874 -0.94672596
000020 52 37 b2 be 72 4c 44 bf db c6 a8 bf 4b 36 0a bf
       -0.3480783 -0.76679146 -1.3185686 -0.53989094
000030 d6 8f 25 bf 0b c0 94 bf d6 52 f6 be a0 ce 75 bf
       -0.646726 -1.1621107 -0.48110074 -0.9601841
000040 98 1a e7 bf 6d 38 0f 3c 0b 3d 8e 3d af b5 68 3d
       -1.8054991 0.00874148 0.06945237 0.056813892
000050 1d 91 cf bf 55 10 11 3f f9 22 33 bf f8 1d 8f bf
       -1.621616 0.56665546 -0.6997524 -1.1181021
000060 89 f9 8e bf 4c d8 81 bf 51 ba 0a c0 ea 75 0b bf
       -1.1169902 -1.0144134 -2.1676219 -0.544768
000070 aa 81 fd bf 14 fa 0d c0 d2 69 08 be 55 e4 0c 3e
       -1.9805195 -2.2183886 -0.13321617 0.13758977

corr_gg_l3.weight f4 [32, 32]
000000 0b 42 ab 3d 8e fe 58 bf c8 02 d3 3c 1e 73 99 be
       0.08362206 -0.8476342 0.025758162 -0.2997064
000010 38 eb 7d bf 66 b0 27 bf c7 fd 3f 3f 3e 1e 34 3f
       -0.9918704 -0.6550354 0.7499661 0.70358646
000020 3a 5e 3b 3f 63 9c bd be 5f 87 ed bc 1d 67 12 be
       0.73190653 -0.37033376 -0.028995214 -0.14297147
000030 b3 ee 34 3d 06 dc 85 3d 52 0e 75 3e 0a a6 94 be
       0.044172954 0.06536107 0.23931244 -0.29032928
000040 5b ae fd 3e 0e 80 91 bd bc 2d 2e 3e 13 7a 66 3f
       0.49547085 -0.071045026 0.17009634 0.9003002
000050 2c 4c 0f 3e dd 58 04 be 43 68 05 3e c7 45 12 3e
       0.13993901 -0.12924524 0.13028054 0.1428443
000060 5e 5c 49 3f f9 c3 7e 3f 11 26 8d bd 39 e5 53 bd
       0.78656566 0.9951778 -0.06892026 -0.051732276
000070 3f 4b 9d 3e 09 5e a8 bf 06 b2 6c bf d4 40 18 bf
       0.3072147 -1.3153697 -0.9245914 -0.5947392
000080 45 fc c7 bd b5 40 3f 3d fe 37 91 bd c5 a0 9e 3d
       -0.097649135 0.04669257 -0.07090758 0.07745508
000090 4b 3f 84 bf 5d 84 f3 be 70 7f 6e 3e 10 c4 08 be
       -1.0331815 -0.47561923 0.23290801 -0.13356042
0000a0 d4 40 2f be b6 f3 60 3f f4 e1 65 be 63 ec 42 3f
       -0.17114574 0.87871873 -0.22449476 0.7614195
0000b0 de d4 01 3e 93 46 d2 3e ec 3c 2e bf c0 21 79 3f
       0.12678859 0.4106947 -0.6806171 0.97317123
0000c0 5f 6b 93 bf a8 24 df be 64 20 e0 3c e8 15 22 3f
       -1.1517142 -0.43582654 0.027359195 0.63314676
0000d0 3d f0 01 3e 96 51 b0 3d 4a 8d 51 3e 5f b8 c3 3d
       0.126893 0.08609311 0.20464054 0.0955665
0000e0 a0 70 14 bf 18 a2 8a be b2 9f 70 bf bd e5 dd be
       -0.5798435 -0.27076793 -0.93993676 -0.4333934
0000f0 2f 6d 18 40 6b f9 f3 bf f7 38 d0 3e 60 40 70 bc
       2.381664 -1.9060491 0.4066846 -0.014663786
000100 af 91 19 3f b9 a3 dc 3d 09 cd f1 3e 1a c5 85 bf
       0.5998792 0.10773415 0.47226742 -1.0450776
000110 7e 98 67 3e 02 c6 12 3e 02 db a7 be 23 b8 26 3f
       0.22616765 0.14333346 -0.32784277 0.6512472
000120 28 2a 06 3f 13 31 99 3e 6e 55 80 3f 92 a8 0a be
       0.52408075 0.29920253 1.0026071 -0.13540867
000130 c3 3d 8f 3e d6 54 92 be ee 00 fb bd 1c 1f 84 3d
       0.27976808 -0.2858035 -0.12256037 0.06451246
000140 23 7d b8 3d 97 ac 0d 3f 51 18 1b 3e 63 8f 6f bf
       0.09008243 0.55341476 0.15145995 -0.93578166
000150 37 8c 2c bf f4 92 99 be 8c 1a 94 3e 96 23 8b be
       -0.6740145 -0.2999493 0.28926504 -0.27175587
000160 85 f4 26 3d 37 22 84 3f dd 99 3d 3e e6 4e ca 3d
       0.040760536 1.0322942 0.18515725 0.0987833
000170 ff a6 4a be 34 d4 d7 bd fd 84 e0 be f2 7e d6 bd
       -0.19790266 -0.105385214 -0.43851462 -0.10473432
000180 3c 61 49 be 0b 21 0c 3f 0d fb 06 bf ee 0d 18 3e
       -0.19665998 0.5473792 -0.52726823 0.14849064
000190 7c 9a 32 be 22 37 19 bf 38 ce 0f bf 01 3d c0 bf
       -0.17441744 -0.5984975 -0.5617404 -1.5018617
0001a0 17 65 c1 3e 9d 6b 1f be 59 6b ac be 01 95 2a be
       0.37772438 -0.15568395 -0.3367565 -0.16658403
0001b0 29 9f 99 be 47 f5 dd 3e 90 0f 56 bf d2 71 b9 be
       -0.30004242 0.43351194 -0.83617496 -0.3621965
0001c0 fd 62 fd bd f5 00 2e 3d 3a 26 45 3f d9 62 8e 3d
       -0.12372396 0.04248138 0.77011454 0.069524474
0001d0 20 cc a7 3e 68 ef 36 3e b1 85 69 3e ec 1e 0b 3e
       0.32772923 0.17864764 0.22804905 0.13586015
0001e0 91 d3 0b 3f 28 c8 e2 3e eb be 85 3e 8d 6e 34 3e
       0.546197 0.44293332 0.2612222 0.17620297
0001f0 96 36 4e 3f 3b 47 a7 be a4 44 39 3e f7 45 42 bf
       0.8055204 -0.32671532 0.1809259 -0.7588801
000200 24 29 59 bc 98 a6 49 3e 78 e9 8d bc 11 bf 2e 3b
       -0.013254438 0.19692457 -0.01732324 0.0026664177
000210 ba 46 dd 3d 59 32 7d 3d 1d f3 43 bd 7e da bf 3c
       0.10804506 0.061815593 -0.047839273 0.023419615
000220 27 3c 35 be a0 d7 58 bc 0d dc 0c 3d 31 59 c2 bd
       -0.17698728 -0.013235003 0.034389544 -0.09489668
000230 13 01 e1 3c 65 6f 74 3c 84 01 76 3c e0 cf bf bb
       0.027466333 0.014919137 0.01501501 -0.005853638
000240 39 e0 3f bc dd c0 99 bd 58 56 f0 3d dc 62 ef 3c
       -0.011711174 -0.07507489 0.11735219 0.029221945
000250 b6 68 62 ba e6 b3 88 bd 8f 25 76 3c dc 1f 51 bd
       -0.0008636819 -0.06674938 0.015023603 -0.051055774
000260 9b 1d 80 bc 31 00 38 be cb d8 16 bb 4b 8b dc 3d
       -0.015639117 -0.17968823 -0.0023017402 0.107687555
000270 90 7b e2 3c d2 e5 b2 b9 54 7d a5 bd 63 09 10 3b
       0.02764681 -0.00034122035 -0.08080545 0.0021978251
000280 0a 23 d1 bb 2c 65 bb 3c fc 7e 43 3d 67 ab 6e bc
       -0.006382351 0.022875391 0.047728524 -0.014567233
000290 8a 7f fe bc 4b 74 3d 3e c9 68 df 3d 98 e1 e8 bd
       -0.031066675 0.18501393 0.10908658 -0.113711536
0002a0 1e 88 53 3d 44 c2 cf bc 98 b3 cc 3c ef 2f 0b bd
       0.051643483 -0.025361188 0.02498798 -0.03398126
0002b0 d1 c2 af bc 84 df e5 3d 07 2d 03 3d 04 60 19 bd
       -0.0214552 0.11224273 0.032025363 -0.037445083
0002c0 06 24 a3 bc 97 b6 24 3e a0 d6 02 be df 01 7f 3d
       -0.019914638 0.16085277 -0.12777185 0.062257644
0002d0 83 4e 6d bc 30 49 ab 3c d3 5d 7b 3d e3 d8 81 3a
       -0.014484051 0.020908922 0.061368775 0.0009906556
0002e0 44 51 3a bd bd 37 91 3d f4 b8 98 3a fd 4f 08 be
       -0.045487657 0.07090709 0.00116518 -0.13311763
0002f0 c1 65 2f bd c2 45 4e 3d bd 46 30 bd 06 5d ba bd
       -0.04282165 0.050359495 -0.04303621 -0.09099774
000300 ae 5c a3 bd 70 a3 6b bf 67 f7 2c be 71 74 e7 3e
       -0.079766616 -0.9204626 -0.16891252 0.45206025
000310 10 3d 17 bf d2 9d 37 bf ff d6 a1 be 56 b8 3e 3e
       -0.5907755 -0.7172519 -0.31609342 0.18625006
000320 b5 dc 36 3f 39 6b ab bf 9f 94 6d 3e 64 f7 33 3f
       0.7143052 -1.3392097 0.23201226 0.70299363
000330 48 9c 1d bd 8c c3 d3 be 27 ac df 3e e3 a0 f1 be
       -0.03847912 -0.41360128 0.4368603 -0.4719306
000340 6c e8 a3 bd 20 1b 10 be ca e1 e1 bd c0 be 74 be
       -0.08003315 -0.14072847 -0.11029394 -0.2390089
000350 57 8e dc 3c ad 49 be be 88 f4 93 3e 10 33 6f be
       0.026923342 -0.37165585 0.288975 -0.23359323
000360 3d 0c 7d bd e2 50 98 be b1 e5 62 3f cc 1d 8f be
       -0.06177925 -0.2974921 0.8863173 -0.2795242
000370 0b d0 81 3f 22 39 2c 3f c6 c1 dc bf fa 67 f3 3f
       1.0141615 0.6727468 -1.7246635 1.9016106
000380 b8 11 8d 3d f4 58 3c be c7 4d 12 3e ca 78 00 3e
       0.06888145 -0.18393308 0.14287482 0.12546077
000390 91 7b 32 bf c2 26 fa bd a4 0d 63 bd ed 07 d3 3f
       -0.697198 -0.12214424 -0.05543293 1.6486794
0003a0 a8 51 aa bd e0 bc c4 bf 9a d6 45 be d7 ce 0a 3e
       -0.08316356 -1.537014 -0.19320145 0.13555466
0003b0 b3 80 c6 3e c9 c2 d0 be 88 64 0b 3f d3 32 ef be
       0.38770065 -0.4077361 0.54450274 -0.46718463
0003c0 d1 42 53 be 0b 20 37 3f 65 94 10 bf cf 58 64 3e
       -0.20630957 0.7153327 -0.5647643 0.22299503
0003d0 35 cd 8e bd 87 10 44 be d4 4f 43 bf 3a 7a f7 bd
       -0.06972734 -0.1914693 -0.76293683 -0.1208386
0003e0 1a 57 86 be 43 f4 49 3e 25 b9 36 bf 64 35 25 3f
       -0.26238328 0.19722085 -0.7137626 0.6453459
0003f0 03 52 b4 be b1 b1 60 3d c4 38 85 bf 18 1e 22 3f
       -0.3521882 0.05485696 -1.0407948 0.6332717

corr_gg_l3.bias f4 [32]
000000 c6 25 c5 be 2a a6 97 bd 9a b0 31 bd 92 1a d6 be
       -0.3850538 -0.0740474 -0.04338131 -0.41817147
000010 4a 8f 6c 3c 04 22 fb bc 31 df 69 bd 69 f1 cc bd
       0.01443846 -0.030655868 -0.057097618 -0.10006983
000020 e3 f3 bc 3c 33 01 f2 bd c2 7f ef 3d a3 5a 09 3d
       0.023065513 -0.11816635 0.1169429 0.033533704
000030 cd 9f 4d 3d 1f c6 c7 bc 57 77 ac 3d 08 c6 d3 3d
       0.050201226 -0.024386464 0.084212 0.10340506
000040 c9 45 ba 3d ee 4f 67 3d 10 26 f5 3d ab e8 1c 3e
       0.09095342 0.05647271 0.119701505 0.15323131
000050 6f 49 29 bd f7 60 a2 bd 67 5b fd bd d6 7f 1c be
       -0.041329797 -0.07928651 -0.12370949 -0.1528314
000060 fe 42 92 3d e7 a3 7a bd 0c ef 21 be f2 53 c4 bd
       0.07141684 -0.061191466 -0.15813845 -0.09586324
000070 9e 75 8b 3d 70 45 f9 bd 6f ee 3e bd a3 9e 7b bd
       0.06809543 -0.12171447 -0.046614107 -0.061430585

corr_gg_l4.weight f4 [32, 32]
000000 40 44 60 bf 2a 99 c7 bd 35 f6 ea bc 46 d5 5f 3f
       -0.8760414 -0.097460106 -0.028681854 0.87434804
000010 e5 d8 c3 3e 2e ee 8d 3d 99 ed 95 3e 77 a3 73 3f
       0.38251415 0.06930195 0.29282835 0.951713
000020 dc ed 86 3f 7e 50 64 bd b2 10 1e 3e 03 94 01 bf
       1.0541339 -0.055740826 0.15436056 -0.5061647
000030 b0 1e c8 bf 71 ad 55 3f 1c 3c db bd c1 38 0b bc
       -1.5634365 0.83467776 -0.10704824 -0.008497418
000040 38 85 91 3d 27 45 8d bf 91 3f 90 bf ce 77 85 3e
       0.071054876 -1.1036729 -1.1269399 0.26067966
000050 4f 4c 09 3f 60 0e 84 be 00 3d c4 be e5 82 bc 3e
       0.5363206 -0.25792217 -0.3832779 0.36818615
000060 b3 1a f8 bf 7e b4 20 bf 4f b4 70 bb 87 16 62 bd
       -1.9383148 -0.6277541 -0.0036728566 -0.055197265
000070 18 83 e0 bc 91 b8 95 3c ea 79 12 be 47 13 2f bb
       -0.02740626 0.018276485 -0.14304319 -0.002671437
000080 c4 8e c1 bf 8f 32 a3 be b2 b7 a4 bf 71 7f b0 3f
       -1.5121694 -0.3187451 -1.2868559 1.3788892
000090 fb 17 b8 3f d8 5a 6b bf a5 2f 78 3f ce 9f 98 be
       1.4382318 -0.9193549 0.969477 -0.2980942
0000a0 d8 e5 a3 3d 6f 4c a4 3e 48 bf ec bf 2b 53 db bf
       0.080028236 0.32089564 -1.8495874 -1.7134756
0000b0 1f 21 e6 bf ec 5d ca 3f a5 3a 09 bf 9c 21 8d bf
       -1.7978858 1.5809913 -0.5360511 -1.1025882
0000c0 a3 4f 11 c0 4e e4 33 bd 93 87 56 3e fa d4 8f 3e
       -2.2704856 -0.0439189 0.20950155 0.28092176
0000d0 78 10 f0 3f bf 88 75 bf 07 e7 8d bf ae 72 e6 3f
       1.8755026 -0.9591178 -1.1086129 1.8003747
0000e0 6d f0 80 3f ca 93 f1 3f 0b 08 cd bf 63 c1 f1 be
       1.0073372 1.8873227 -1.601808 -0.47217855
0000f0 f9 79 a6 3f 89 3e 99 3f 99 09 22 be e4 e8 ca be
       1.3005973 1.1972209 -0.15823974 -0.39630806
000100 b3 66 01 bf 46 d9 8f 3e 42 b0 f8 be 3a fc 5a 3f
       -0.5054733 0.28095454 -0.48571974 0.8554112
000110 82 63 12 3e 2b 93 9d bc e7 5d 3a 3e d1 c4 28 3f
       0.14295772 -0.019235214 0.18199883 0.6592532
000120 83 ce ac 3f 11 ef 54 3b a4 2a 96 bf 9c 95 da be
       1.3500522 0.0032491127 -1.1731763 -0.42692268
000130 09 f3 56 be 3b 93 a7 3e b1 dd af bf 64 b0 09 bd
       -0.20991148 0.32729515 -1.373953 -0.033615485
000140 a9 53 ac 3c bc f8 1b bf 52 9a 2f 3f 75 9d 92 ba
       0.021035986 -0.60926414 0.6859485 -0.0011185842
000150 01 8a f8 3e 8a dd 81 bf 04 70 3d bf 9f 44 1d 3c
       0.4854279 -1.0145733 -0.7399905 0.00959888
000160 da e2 8b 3e e5 de 47 be 5a 36 4b bf 2e ad 5f 3e
       0.27321512 -0.19518621 -0.7937981 0.21843407
000170 70 b7 c1 3d 02 13 62 bd db 1f a4 3e a8 fe a9 be
       0.09458816 -0.05519391 0.32055554 -0.332021
000180 d4 fc ba be 65 85 8b 3f fc 86 48 be f8 d5 2d 3f
       -0.36521018 1.0900084 -0.19582742 0.67904615
000190 7d 4f 6b be 6b fa e6 bf d8 df be 3e 8e 91 40 3f
       -0.22979541 -1.8045171 0.37280154 0.752221
0001a0 27 51 82 bf 66 17 9a be 55 6d 4e bf 68 a9 6f be
       -1.0181016 -0.30095977 -0.8063558 -0.23404467
0001b0 07 d2 0d bf b0 a4 7a 3f 71 35 0d bf 3a d5 dc bd
       -0.553986 0.97907543 -0.5515967 -0.10782857
0001c0 98 23 2c 3d ff 5c 6d be 1a 1b 33 be 77 55 0b 3f
       0.042026132 -0.23180006 -0.17490807 0.54427284
0001d0 99 96 23 3f 7c b6 04 be 22 d7 24 3e 40 ec 71 3c
       0.6390167 -0.12960237 0.16097692 0.014765799
0001e0 11 c6 13 bf 81 c5 a4 3f 07 a6 e0 bc 37 4e a2 3e
       -0.577241 1.2872773 -0.027422918 0.31700298
0001f0 03 8f bb 3e 31 f9 c9 3c 61 23 8b 3e 4e 66 0c bf
       0.36632547 0.024654957 0.2717543 -0.54843605
000200 11 18 a7 c0 0a 7d c6 c0 fc bc 1b c1 85 84 9a 40
       -5.221688 -6.2027636 -9.733639 4.8286767
000210 bf 22 1f 40 de 52 81 c0 38 b8 28 40 eb b5 f5 bf
       2.4864957 -4.0413656 2.6362438 -1.9196142
000220 55 00 7e c0 e8 27 8d 40 6a a2 b9 40 a9 37 35 c0
       -3.9687703 4.4111214 5.801076 -2.8315222
000230 cb 62 c3 c0 6b 90 2d 40 f2 99 cf c0 af 37 40 c0
       -6.1058097 2.7119396 -6.487542 -3.0033987
000240 6b d0 12 c1 42 bc ee bf db 0c aa c0 86 f9 6d bf
       -9.175883 -1.8651202 -5.3140693 -0.9295887
000250 c5 1b 07 c1 4a 6f 7f 40 2d 2f 9c bf d7 a6 21 3f
       -8.44428 3.9911675 -1.2201897 0.631452
000260 a8 8c e8 bf 6d 1e 4a 40 b6 3e e8 c0 ee ed 2b 40
       -1.8167925 3.158107 -7.257655 2.686397
000270 7d dd 34 40 05 92 b4 40 3f cc 94 bf 20 88 27 40
       2.8260186 5.6428246 -1.1624831 2.6176834
000280 5b 62 af c0 94 9f ca c0 49 75 22 c1 db ff 9e 40
       -5.4807563 -6.3319798 -10.153634 4.9687324
000290 da aa 23 40 b3 cf 6e c0 03 14 1d 40 dd aa e0 bf
       2.557303 -3.731427 2.4543464 -1.7552143
0002a0 2e 7f 80 c0 ed a7 8f 40 26 7d b8 40 7f 69 1e c0
       -4.015525 4.4892488 5.765277 -2.475189
0002b0 b5 93 ce c0 a8 04 2c 40 84 d4 c9 c0 ea bf 2b c0
       -6.4555306 2.6877842 -6.307192 -2.6835885
0002c0 29 b3 1a c1 08 85 08 c0 9d d3 ac c0 c8 9f 82 bf
       -9.66874 -2.1331196 -5.4008317 -1.0205011
0002d0 76 4e 07 c1 22 a9 84 40 78 cf 99 bf ce 83 ac 3e
       -8.4566555 4.145646 -1.201644 0.3369431
0002e0 51 0e d1 bf de 71 42 40 a6 ce f1 c0 bd 84 41 40
       -1.6332494 3.0382 -7.5564756 3.0237267
0002f0 e5 cd 2b 40 86 79 ad 40 9a 1e 8c bf 94 b3 1a 40
       2.6844418 5.4210844 -1.0946839 2.4172106
000300 3b 9f 13 bf c2 25 2a 3f b7 83 f3 be 0e 6e a9 bf
       -0.5766484 0.66463864 -0.47561428 -1.3236711
000310 c2 5d 5f 3f 89 dd 0e c0 09 ed 2e 3f 68 c6 b5 3f
       0.8725244 -2.2322714 0.68330437 1.4201174
000320 8d 2a 48 3f a9 65 66 3e ce fe b0 3f b5 24 12 bf
       0.7818993 0.22499718 1.382776 -0.5708726
000330 f6 ab 83 be 7a c6 7b 3f e1 2b 19 be d4 45 94 be
       -0.25717133 0.98349726 -0.14958145 -0.28959525
000340 f2 e1 cf be 53 73 4c bf 3d 63 32 3f 9a e5 b5 3e
       -0.4060207 -0.7986347 0.69682676 0.35526735
000350 25 75 64 3e e7 b7 e0 3f 4e 0f 90 3e 5b f3 1c bd
       0.22310312 1.7556123 0.28136677 -0.03831802
000360 2d 8e 7a 3f 55 94 5b 3f 3c 94 9c bf f7 53 e2 bf
       0.97873193 0.8577321 -1.2232738 -1.7681874
000370 c2 5b 4d 3f cf f6 b5 3f 08 5c d8 bd 89 99 08 3f
       0.80218136 1.4215945 -0.105644286 0.53359276
000380 70 b9 3d bf c6 5d fc bd e5 cb 09 c0 ae 8b 3d 3e
       -0.7411108 -0.12322573 -2.1530697 0.18510315
000390 b9 c8 56 3e 5f 55 a0 bf 70 9d cf 3e 22 93 26 3f
       0.20975007 -1.2526053 0.40549803 0.65068257
0003a0 60 32 1c 3f be 31 63 3f 93 ce 38 3f e2 e9 3b 3d
       0.61014366 0.88747776 0.7219021 0.045877345
0003b0 42 ea cd bf 6a a6 f7 3d c5 e3 1d bf b6 9d f4 be
       -1.6087115 0.12092288 -0.61675674 -0.47776574
0003c0 08 2e d8 be ee e2 b5 bd 9f f2 3b be bb 93 4b be
       -0.4222262 -0.08881174 -0.18354271 -0.19880573
0003d0 9d 05 70 bd 67 a2 94 3e 0e 64 4a 3f 6c 46 85 bd
       -0.058599103 0.29030153 0.7905892 -0.065075725
0003e0 6c 39 70 bf 71 6c f9 3e 1d 3e 2d be 77 fd 29 bf
       -0.9383762 0.48715547 -0.16918226 -0.6640238
0003f0 d4 0f 7e 3f f6 6c 7f 3f 2c 07 d9 be ea 92 3c 3e
       0.992429 0.99775636 -0.42388284 0.18415418
